…
  WEIGHT_DECAY_BIAS: 0.0001
  WEIGHT_DECAY_NORM: 0.0
TEST:
  AUG:
    ENABLED: False
    FLIP: True
    MAX_SIZE: 4000
    MIN_SIZES: (400, 500, 600, 700, 800, 900, 1000, 1100, 1200)
  DETECTIONS_PER_IMAGE: 100
  EVAL_PERIOD: 0
  EXPECTED_RESULTS: []
  KEYPOINT_OKS_SIGMAS: []
  PRECISE_BN:
    ENABLED: True
    NUM_ITER: 200
VERSION: 2
VIS_PERIOD: 0
[07/30 13:12:00] detectron2 INFO: Full config saved to ./output/config.yaml
[07/30 13:12:00] d2.utils.env INFO: Using a generated random seed 457175
[07/30 13:12:01] d2.engine.defaults INFO: Model:
GeneralizedRCNN(
  (backbone): FPN(
    (fpn_lateral2): Conv2d(
      256, 256, kernel_size=(1, 1), stride=(1, 1), bias=False
      (norm): SyncBatchNorm(256, eps=1e-05, momentum=0.1, affine=True, track_running_stats=True)
    )
    (fpn_output2): Conv2d(
      256, 256, kernel_size=(3, 3), stride=(1, 1), padding=(1, 1), bias=False
      (norm): SyncBatchNorm(256, eps=1e-05, momentum=0.1, affine=True, track_running_stats=True)
    )
    (fpn_lateral3): Conv2d(
      512, 256, kernel_size=(1, 1), stride=(1, 1), bias=False
      (norm): SyncBatchNorm(256, eps=1e-05, momentum=0.1, affine=True, track_running_stats=True)
    )
    (fpn_output3): Conv2d(
      256, 256, kernel_size=(3, 3), stride=(1, 1), padding=(1, 1), bias=False
      (norm): SyncBatchNorm(256, eps=1e-05, momentum=0.1, affine=True, track_running_stats=True)
    )
    (fpn_lateral4): Conv2d(
      1024, 256, kernel_size=(1, 1), stride=(1, 1), bias=False
      (norm): SyncBatchNorm(256, eps=1e-05, momentum=0.1, affine=True, track_running_stats=True)
    )
    (fpn_output4): Conv2d(
      256, 256, kernel_size=(3, 3), stride=(1, 1), padding=(1, 1), bias=False
      (norm): SyncBatchNorm(256, eps=1e-05, momentum=0.1, affine=True, track_running_stats=True)
    )
    (fpn_lateral5): Conv2d(
      2048, 256, kernel_size=(1, 1), stride=(1, 1), bias=False
      (norm): SyncBatchNorm(256, eps=1e-05, momentum=0.1, affine=True, track_running_stats=True)
    )
    (fpn_output5): Conv2d(
      256, 256, kernel_size=(3, 3), stride=(1, 1), padding=(1, 1), bias=False
      (norm): SyncBatchNorm(256, eps=1e-05, momentum=0.1, affine=True, track_running_stats=True)
    )
    (top_block): LastLevelMaxPool()
    (bottom_up): SECoTNetD(
      (stem): BasicStem(
        (conv1): Sequential(
          (0): Conv2d(3, 32, kernel_size=(3, 3), stride=(2, 2), padding=(1, 1), bias=False)
          (1): FrozenBatchNorm2d(num_features=32, eps=1e-05)
          (2): ReLU(inplace=True)
          (3): Conv2d(32, 32, kernel_size=(3, 3), stride=(1, 1), padding=(1, 1), bias=False)
          (4): FrozenBatchNorm2d(num_features=32, eps=1e-05)
          (5): ReLU(inplace=True)
          (6): Conv2d(32, 64, kernel_size=(3, 3), stride=(1, 1), padding=(1, 1), bias=False)
          (7): FrozenBatchNorm2d(num_features=64, eps=1e-05)
        )
      )
      (res2): Sequential(
        (0): CoTBlock(
          (shortcut): Sequential(
            (0): AvgPool2d(kernel_size=2, stride=2, padding=0)
            (1): Conv2d(
              64, 256, kernel_size=(1, 1), stride=(1, 1), bias=False
              (norm): FrozenBatchNorm2d(num_features=256, eps=1e-05)
            )
          )
          (conv1): Conv2d(
            64, 64, kernel_size=(1, 1), stride=(1, 1), bias=False
            (norm): FrozenBatchNorm2d(num_features=64, eps=1e-05)
          )
          (conv2): SplitAttnConv2d(
            (conv): Conv2d(64, 64, kernel_size=(3, 3), stride=(2, 2), padding=(1, 1), bias=False)
            (bn0): FrozenBatchNorm2d(num_features=64, eps=1e-05)
            (act0): SiLU(inplace=True)
            (fc1): Conv2d(64, 32, kernel_size=(1, 1), stride=(1, 1))
            (bn1): FrozenBatchNorm2d(num_features=32, eps=1e-05)
            (act1): SiLU(inplace=True)
            (fc2): Conv2d(32, 64, kernel_size=(1, 1), stride=(1, 1))
            (rsoftmax): RadixSoftmax()
          )
          (conv3): Conv2d(
            64, 256, kernel_size=(1, 1), stride=(1, 1), bias=False
            (norm): FrozenBatchNorm2d(num_features=256, eps=1e-05)
          )
        )
        (1): CoTBlock(
          (conv1): Conv2d(
            256, 64, kernel_size=(1, 1), stride=(1, 1), bias=False
            (norm): FrozenBatchNorm2d(num_features=64, eps=1e-05)
          )
          (conv2): SplitAttnConv2d(
            (conv): Conv2d(64, 64, kernel_size=(3, 3), stride=(1, 1), padding=(1, 1), bias=False)
            (bn0): FrozenBatchNorm2d(num_features=64, eps=1e-05)
            (act0): SiLU(inplace=True)
            (fc1): Conv2d(64, 32, kernel_size=(1, 1), stride=(1, 1))
            (bn1): FrozenBatchNorm2d(num_features=32, eps=1e-05)
            (act1): SiLU(inplace=True)
            (fc2): Conv2d(32, 64, kernel_size=(1, 1), stride=(1, 1))
            (rsoftmax): RadixSoftmax()
          )
          (conv3): Conv2d(
            64, 256, kernel_size=(1, 1), stride=(1, 1), bias=False
            (norm): FrozenBatchNorm2d(num_features=256, eps=1e-05)
          )
        )
        (2): CoTBlock(
          (conv1): Conv2d(
            256, 64, kernel_size=(1, 1), stride=(1, 1), bias=False
            (norm): FrozenBatchNorm2d(num_features=64, eps=1e-05)
          )
          (conv2): SplitAttnConv2d(
            (conv): Conv2d(64, 64, kernel_size=(3, 3), stride=(1, 1), padding=(1, 1), bias=False)
            (bn0): FrozenBatchNorm2d(num_features=64, eps=1e-05)
            (act0): SiLU(inplace=True)
            (fc1): Conv2d(64, 32, kernel_size=(1, 1), stride=(1, 1))
            (bn1): FrozenBatchNorm2d(num_features=32, eps=1e-05)
            (act1): SiLU(inplace=True)
            (fc2): Conv2d(32, 64, kernel_size=(1, 1), stride=(1, 1))
            (rsoftmax): RadixSoftmax()
          )
          (conv3): Conv2d(
            64, 256, kernel_size=(1, 1), stride=(1, 1), bias=False
            (norm): FrozenBatchNorm2d(num_features=256, eps=1e-05)
          )
        )
      )
      (res3): Sequential(
        (0): CoTBlock(
          (shortcut): Sequential(
            (0): AvgPool2d(kernel_size=2, stride=2, padding=0)
            (1): Conv2d(
              256, 512, kernel_size=(1, 1), stride=(1, 1), bias=False
              (norm): SyncBatchNorm(512, eps=1e-05, momentum=0.1, affine=True, track_running_stats=True)
            )
          )
          (conv1): Conv2d(
            256, 128, kernel_size=(1, 1), stride=(1, 1), bias=False
            (norm): SyncBatchNorm(128, eps=1e-05, momentum=0.1, affine=True, track_running_stats=True)
          )
          (conv2): SplitAttnConv2d(
            (conv): Conv2d(128, 128, kernel_size=(3, 3), stride=(2, 2), padding=(1, 1), bias=False)
            (bn0): SyncBatchNorm(128, eps=1e-05, momentum=0.1, affine=True, track_running_stats=True)
            (act0): SiLU(inplace=True)
            (fc1): Conv2d(128, 32, kernel_size=(1, 1), stride=(1, 1))
            (bn1): SyncBatchNorm(32, eps=1e-05, momentum=0.1, affine=True, track_running_stats=True)
            (act1): SiLU(inplace=True)
            (fc2): Conv2d(32, 128, kernel_size=(1, 1), stride=(1, 1))
            (rsoftmax): RadixSoftmax()
          )
          (conv3): Conv2d(
            128, 512, kernel_size=(1, 1), stride=(1, 1), bias=False
            (norm): SyncBatchNorm(512, eps=1e-05, momentum=0.1, affine=True, track_running_stats=True)
          )
        )
        (1): CoTBlock(
          (conv1): Conv2d(
            512, 128, kernel_size=(1, 1), stride=(1, 1), bias=False
            (norm): SyncBatchNorm(128, eps=1e-05, momentum=0.1, affine=True, track_running_stats=True)
          )
          (conv2): SplitAttnConv2d(
            (conv): Conv2d(128, 128, kernel_size=(3, 3), stride=(1, 1), padding=(1, 1), bias=False)
            (bn0): SyncBatchNorm(128, eps=1e-05, momentum=0.1, affine=True, track_running_stats=True)
            (act0): SiLU(inplace=True)
            (fc1): Conv2d(128, 32, kernel_size=(1, 1), stride=(1, 1))
            (bn1): SyncBatchNorm(32, eps=1e-05, momentum=0.1, affine=True, track_running_stats=True)
            (act1): SiLU(inplace=True)
            (fc2): Conv2d(32, 128, kernel_size=(1, 1), stride=(1, 1))
            (rsoftmax): RadixSoftmax()
          )
          (conv3): Conv2d(
            128, 512, kernel_size=(1, 1), stride=(1, 1), bias=False
            (norm): SyncBatchNorm(512, eps=1e-05, momentum=0.1, affine=True, track_running_stats=True)
          )
        )
        (2): CoTBlock(
          (conv1): Conv2d(
            512, 128, kernel_size=(1, 1), stride=(1, 1), bias=False
            (norm): SyncBatchNorm(128, eps=1e-05, momentum=0.1, affine=True, track_running_stats=True)
          )
          (conv2): SplitAttnConv2d(
            (conv): Conv2d(128, 128, kernel_size=(3, 3), stride=(1, 1), padding=(1, 1), bias=False)
            (bn0): SyncBatchNorm(128, eps=1e-05, momentum=0.1, affine=True, track_running_stats=True)
            (act0): SiLU(inplace=True)
            (fc1): Conv2d(128, 32, kernel_size=(1, 1), stride=(1, 1))
            (bn1): SyncBatchNorm(32, eps=1e-05, momentum=0.1, affine=True, track_running_stats=True)
            (act1): SiLU(inplace=True)
            (fc2): Conv2d(32, 128, kernel_size=(1, 1), stride=(1, 1))
            (rsoftmax): RadixSoftmax()
          )
          (conv3): Conv2d(
            128, 512, kernel_size=(1, 1), stride=(1, 1), bias=False
            (norm): SyncBatchNorm(512, eps=1e-05, momentum=0.1, affine=True, track_running_stats=True)
          )
        )
        (3): CoTBlock(
          (conv1): Conv2d(
            512, 128, kernel_size=(1, 1), stride=(1, 1), bias=False
            (norm): SyncBatchNorm(128, eps=1e-05, momentum=0.1, affine=True, track_running_stats=True)
          )
          (conv2): SplitAttnConv2d(
            (conv): Conv2d(128, 128, kernel_size=(3, 3), stride=(1, 1), padding=(1, 1), bias=False)
            (bn0): SyncBatchNorm(128, eps=1e-05, momentum=0.1, affine=True, track_running_stats=True)
            (act0): SiLU(inplace=True)
            (fc1): Conv2d(128, 32, kernel_size=(1, 1), stride=(1, 1))
            (bn1): SyncBatchNorm(32, eps=1e-05, momentum=0.1, affine=True, track_running_stats=True)
            (act1): SiLU(inplace=True)
            (fc2): Conv2d(32, 128, kernel_size=(1, 1), stride=(1, 1))
            (rsoftmax): RadixSoftmax()
          )
          (conv3): Conv2d(
            128, 512, kernel_size=(1, 1), stride=(1, 1), bias=False
            (norm): SyncBatchNorm(512, eps=1e-05, momentum=0.1, affine=True, track_running_stats=True)
          )
        )
      )
      (res4): Sequential(
        (0): CoTBlock(
          (shortcut): Sequential(
            (0): AvgPool2d(kernel_size=2, stride=2, padding=0)
            (1): Conv2d(
              512, 1024, kernel_size=(1, 1), stride=(1, 1), bias=False
              (norm): SyncBatchNorm(1024, eps=1e-05, momentum=0.1, affine=True, track_running_stats=True)
            )
          )
          (conv1): Conv2d(
            512, 256, kernel_size=(1, 1), stride=(1, 1), bias=False
            (norm): SyncBatchNorm(256, eps=1e-05, momentum=0.1, affine=True, track_running_stats=True)
          )
          (conv2): CoTLayer(
            (key_embed): Sequential(
              (0): Conv2d(
                256, 256, kernel_size=(3, 3), stride=(1, 1), padding=(1, 1), groups=4, bias=False
                (norm): SyncBatchNorm(256, eps=1e-05, momentum=0.1, affine=True, track_running_stats=True)
              )
              (1): ReLU(inplace=True)
            )
            (embed): Sequential(
              (0): Conv2d(
                512, 128, kernel_size=(1, 1), stride=(1, 1), bias=False
                (norm): SyncBatchNorm(128, eps=1e-05, momentum=0.1, affine=True, track_running_stats=True)
              )
              (1): ReLU(inplace=True)
              (2): Conv2d(128, 288, kernel_size=(1, 1), stride=(1, 1))
              (3): GroupNorm(32, 288, eps=1e-05, affine=True)
            )
            (conv1x1): Sequential(
              (0): Conv2d(256, 256, kernel_size=(1, 1), stride=(1, 1), bias=False)
              (1): SyncBatchNorm(256, eps=1e-05, momentum=0.1, affine=True, track_running_stats=True)
            )
            (local_conv): LocalConvolution()
            (bn): SyncBatchNorm(256, eps=1e-05, momentum=0.1, affine=True, track_running_stats=True)
            (act): SiLU(inplace=True)
            (se): Sequential(
              (0): Conv2d(
                256, 128, kernel_size=(1, 1), stride=(1, 1)
                (norm): SyncBatchNorm(128, eps=1e-05, momentum=0.1, affine=True, track_running_stats=True)
              )
              (1): ReLU(inplace=True)
              (2): Conv2d(128, 512, kernel_size=(1, 1), stride=(1, 1))
            )
          )
          (avd): AvgPool2d(kernel_size=3, stride=2, padding=1)
          (conv3): Conv2d(
            256, 1024, kernel_size=(1, 1), stride=(1, 1), bias=False
            (norm): SyncBatchNorm(1024, eps=1e-05, momentum=0.1, affine=True, track_running_stats=True)
          )
        )
        (1): CoTBlock(
          (conv1): Conv2d(
            1024, 256, kernel_size=(1, 1), stride=(1, 1), bias=False
            (norm): SyncBatchNorm(256, eps=1e-05, momentum=0.1, affine=True, track_running_stats=True)
          )
          (conv2): SplitAttnConv2d(
            (conv): Conv2d(256, 256, kernel_size=(3, 3), stride=(1, 1), padding=(1, 1), bias=False)
            (bn0): SyncBatchNorm(256, eps=1e-05, momentum=0.1, affine=True, track_running_stats=True)
            (act0): SiLU(inplace=True)
            (fc1): Conv2d(256, 64, kernel_size=(1, 1), stride=(1, 1))
            (bn1): SyncBatchNorm(64, eps=1e-05, momentum=0.1, affine=True, track_running_stats=True)
            (act1): SiLU(inplace=True)
            (fc2): Conv2d(64, 256, kernel_size=(1, 1), stride=(1, 1))
            (rsoftmax): RadixSoftmax()
          )
          (conv3): Conv2d(
            256, 1024, kernel_size=(1, 1), stride=(1, 1), bias=False
            (norm): SyncBatchNorm(1024, eps=1e-05, momentum=0.1, affine=True, track_running_stats=True)
          )
        )
        (2): CoTBlock(
          (conv1): Conv2d(
            1024, 256, kernel_size=(1, 1), stride=(1, 1), bias=False
            (norm): SyncBatchNorm(256, eps=1e-05, momentum=0.1, affine=True, track_running_stats=True)
          )
          (conv2): CoTLayer(
            (key_embed): Sequential(
              (0): Conv2d(
                256, 256, kernel_size=(3, 3), stride=(1, 1), padding=(1, 1), groups=4, bias=False
                (norm): SyncBatchNorm(256, eps=1e-05, momentum=0.1, affine=True, track_running_stats=True)
              )
              (1): ReLU(inplace=True)
            )
            (embed): Sequential(
              (0): Conv2d(
                512, 128, kernel_size=(1, 1), stride=(1, 1), bias=False
                (norm): SyncBatchNorm(128, eps=1e-05, momentum=0.1, affine=True, track_running_stats=True)
              )
              (1): ReLU(inplace=True)
              (2): Conv2d(128, 288, kernel_size=(1, 1), stride=(1, 1))
              (3): GroupNorm(32, 288, eps=1e-05, affine=True)
            )
            (conv1x1): Sequential(
              (0): Conv2d(256, 256, kernel_size=(1, 1), stride=(1, 1), bias=False)
              (1): SyncBatchNorm(256, eps=1e-05, momentum=0.1, affine=True, track_running_stats=True)
            )
            (local_conv): LocalConvolution()
            (bn): SyncBatchNorm(256, eps=1e-05, momentum=0.1, affine=True, track_running_stats=True)
            (act): SiLU(inplace=True)
            (se): Sequential(
              (0): Conv2d(
                256, 128, kernel_size=(1, 1), stride=(1, 1)
                (norm): SyncBatchNorm(128, eps=1e-05, momentum=0.1, affine=True, track_running_stats=True)
              )
              (1): ReLU(inplace=True)
              (2): Conv2d(128, 512, kernel_size=(1, 1), stride=(1, 1))
            )
          )
          (conv3): Conv2d(
            256, 1024, kernel_size=(1, 1), stride=(1, 1), bias=False
            (norm): SyncBatchNorm(1024, eps=1e-05, momentum=0.1, affine=True, track_running_stats=True)
          )
        )
        (3): CoTBlock(
          (conv1): Conv2d(
            1024, 256, kernel_size=(1, 1), stride=(1, 1), bias=False
            (norm): SyncBatchNorm(256, eps=1e-05, momentum=0.1, affine=True, track_running_stats=True)
          )
          (conv2): SplitAttnConv2d(
            (conv): Conv2d(256, 256, kernel_size=(3, 3), stride=(1, 1), padding=(1, 1), bias=False)
            (bn0): SyncBatchNorm(256, eps=1e-05, momentum=0.1, affine=True, track_running_stats=True)
            (act0): SiLU(inplace=True)
            (fc1): Conv2d(256, 64, kernel_size=(1, 1), stride=(1, 1))
            (bn1): SyncBatchNorm(64, eps=1e-05, momentum=0.1, affine=True, track_running_stats=True)
            (act1): SiLU(inplace=True)
            (fc2): Conv2d(64, 256, kernel_size=(1, 1), stride=(1, 1))
            (rsoftmax): RadixSoftmax()
          )
          (conv3): Conv2d(
            256, 1024, kernel_size=(1, 1), stride=(1, 1), bias=False
            (norm): SyncBatchNorm(1024, eps=1e-05, momentum=0.1, affine=True, track_running_stats=True)
          )
        )
        (4): CoTBlock(
          (conv1): Conv2d(
            1024, 256, kernel_size=(1, 1), stride=(1, 1), bias=False
            (norm): SyncBatchNorm(256, eps=1e-05, momentum=0.1, affine=True, track_running_stats=True)
          )
          (conv2): CoTLayer(
            (key_embed): Sequential(
              (0): Conv2d(
                256, 256, kernel_size=(3, 3), stride=(1, 1), padding=(1, 1), groups=4, bias=False
                (norm): SyncBatchNorm(256, eps=1e-05, momentum=0.1, affine=True, track_running_stats=True)
              )
              (1): ReLU(inplace=True)
            )
            (embed): Sequential(
              (0): Conv2d(
                512, 128, kernel_size=(1, 1), stride=(1, 1), bias=False
                (norm): SyncBatchNorm(128, eps=1e-05, momentum=0.1, affine=True, track_running_stats=True)
              )
              (1): ReLU(inplace=True)
              (2): Conv2d(128, 288, kernel_size=(1, 1), stride=(1, 1))
              (3): GroupNorm(32, 288, eps=1e-05, affine=True)
            )
            (conv1x1): Sequential(
              (0): Conv2d(256, 256, kernel_size=(1, 1), stride=(1, 1), bias=False)
              (1): SyncBatchNorm(256, eps=1e-05, momentum=0.1, affine=True, track_running_stats=True)
            )
            (local_conv): LocalConvolution()
            (bn): SyncBatchNorm(256, eps=1e-05, momentum=0.1, affine=True, track_running_stats=True)
            (act): SiLU(inplace=True)
            (se): Sequential(
              (0): Conv2d(
                256, 128, kernel_size=(1, 1), stride=(1, 1)
                (norm): SyncBatchNorm(128, eps=1e-05, momentum=0.1, affine=True, track_running_stats=True)
              )
              (1): ReLU(inplace=True)
              (2): Conv2d(128, 512, kernel_size=(1, 1), stride=(1, 1))
            )
          )
          (conv3): Conv2d(
            256, 1024, kernel_size=(1, 1), stride=(1, 1), bias=False
            (norm): SyncBatchNorm(1024, eps=1e-05, momentum=0.1, affine=True, track_running_stats=True)
          )
        )
        (5): CoTBlock(
          (conv1): Conv2d(
            1024, 256, kernel_size=(1, 1), stride=(1, 1), bias=False
            (norm): SyncBatchNorm(256, eps=1e-05, momentum=0.1, affine=True, track_running_stats=True)
          )
          (conv2): SplitAttnConv2d(
            (conv): Conv2d(256, 256, kernel_size=(3, 3), stride=(1, 1), padding=(1, 1), bias=False)
            (bn0): SyncBatchNorm(256, eps=1e-05, momentum=0.1, affine=True, track_running_stats=True)
            (act0): SiLU(inplace=True)
            (fc1): Conv2d(256, 64, kernel_size=(1, 1), stride=(1, 1))
            (bn1): SyncBatchNorm(64, eps=1e-05, momentum=0.1, affine=True, track_running_stats=True)
            (act1): SiLU(inplace=True)
            (fc2): Conv2d(64, 256, kernel_size=(1, 1), stride=(1, 1))
            (rsoftmax): RadixSoftmax()
          )
          (conv3): Conv2d(
            256, 1024, kernel_size=(1, 1), stride=(1, 1), bias=False
            (norm): SyncBatchNorm(1024, eps=1e-05, momentum=0.1, affine=True, track_running_stats=True)
          )
        )
      )
      (res5): Sequential(
        (0): CoTBlock(
          (shortcut): Sequential(
            (0): AvgPool2d(kernel_size=2, stride=2, padding=0)
            (1): Conv2d(
              1024, 2048, kernel_size=(1, 1), stride=(1, 1), bias=False
              (norm): SyncBatchNorm(2048, eps=1e-05, momentum=0.1, affine=True, track_running_stats=True)
            )
          )
          (conv1): Conv2d(
            1024, 512, kernel_size=(1, 1), stride=(1, 1), bias=False
            (norm): SyncBatchNorm(512, eps=1e-05, momentum=0.1, affine=True, track_running_stats=True)
          )
          (conv2): CoTLayer(
            (key_embed): Sequential(
              (0): Conv2d(
                512, 512, kernel_size=(3, 3), stride=(1, 1), padding=(1, 1), groups=4, bias=False
                (norm): SyncBatchNorm(512, eps=1e-05, momentum=0.1, affine=True, track_running_stats=True)
              )
              (1): ReLU(inplace=True)
            )
            (embed): Sequential(
              (0): Conv2d(
                1024, 256, kernel_size=(1, 1), stride=(1, 1), bias=False
                (norm): SyncBatchNorm(256, eps=1e-05, momentum=0.1, affine=True, track_running_stats=True)
              )
              (1): ReLU(inplace=True)
              (2): Conv2d(256, 576, kernel_size=(1, 1), stride=(1, 1))
              (3): GroupNorm(64, 576, eps=1e-05, affine=True)
            )
            (conv1x1): Sequential(
              (0): Conv2d(512, 512, kernel_size=(1, 1), stride=(1, 1), bias=False)
              (1): SyncBatchNorm(512, eps=1e-05, momentum=0.1, affine=True, track_running_stats=True)
            )
            (local_conv): LocalConvolution()
            (bn): SyncBatchNorm(512, eps=1e-05, momentum=0.1, affine=True, track_running_stats=True)
            (act): SiLU(inplace=True)
            (se): Sequential(
              (0): Conv2d(
                512, 256, kernel_size=(1, 1), stride=(1, 1)
                (norm): SyncBatchNorm(256, eps=1e-05, momentum=0.1, affine=True, track_running_stats=True)
              )
              (1): ReLU(inplace=True)
              (2): Conv2d(256, 1024, kernel_size=(1, 1), stride=(1, 1))
            )
          )
          (avd): AvgPool2d(kernel_size=3, stride=2, padding=1)
          (conv3): Conv2d(
            512, 2048, kernel_size=(1, 1), stride=(1, 1), bias=False
            (norm): SyncBatchNorm(2048, eps=1e-05, momentum=0.1, affine=True, track_running_stats=True)
          )
        )
        (1): CoTBlock(
          (conv1): Conv2d(
            2048, 512, kernel_size=(1, 1), stride=(1, 1), bias=False
            (norm): SyncBatchNorm(512, eps=1e-05, momentum=0.1, affine=True, track_running_stats=True)
          )
          (conv2): CoTLayer(
            (key_embed): Sequential(
              (0): Conv2d(
                512, 512, kernel_size=(3, 3), stride=(1, 1), padding=(1, 1), groups=4, bias=False
                (norm): SyncBatchNorm(512, eps=1e-05, momentum=0.1, affine=True, track_running_stats=True)
              )
              (1): ReLU(inplace=True)
            )
            (embed): Sequential(
              (0): Conv2d(
                1024, 256, kernel_size=(1, 1), stride=(1, 1), bias=False
                (norm): SyncBatchNorm(256, eps=1e-05, momentum=0.1, affine=True, track_running_stats=True)
              )
              (1): ReLU(inplace=True)
              (2): Conv2d(256, 576, kernel_size=(1, 1), stride=(1, 1))
              (3): GroupNorm(64, 576, eps=1e-05, affine=True)
            )
            (conv1x1): Sequential(
              (0): Conv2d(512, 512, kernel_size=(1, 1), stride=(1, 1), bias=False)
              (1): SyncBatchNorm(512, eps=1e-05, momentum=0.1, affine=True, track_running_stats=True)
            )
            (local_conv): LocalConvolution()
            (bn): SyncBatchNorm(512, eps=1e-05, momentum=0.1, affine=True, track_running_stats=True)
            (act): SiLU(inplace=True)
            (se): Sequential(
              (0): Conv2d(
                512, 256, kernel_size=(1, 1), stride=(1, 1)
                (norm): SyncBatchNorm(256, eps=1e-05, momentum=0.1, affine=True, track_running_stats=True)
              )
              (1): ReLU(inplace=True)
              (2): Conv2d(256, 1024, kernel_size=(1, 1), stride=(1, 1))
            )
          )
          (conv3): Conv2d(
            512, 2048, kernel_size=(1, 1), stride=(1, 1), bias=False
            (norm): SyncBatchNorm(2048, eps=1e-05, momentum=0.1, affine=True, track_running_stats=True)
          )
        )
        (2): CoTBlock(
          (conv1): Conv2d(
            2048, 512, kernel_size=(1, 1), stride=(1, 1), bias=False
            (norm): SyncBatchNorm(512, eps=1e-05, momentum=0.1, affine=True, track_running_stats=True)
          )
          (conv2): CoTLayer(
            (key_embed): Sequential(
              (0): Conv2d(
                512, 512, kernel_size=(3, 3), stride=(1, 1), padding=(1, 1), groups=4, bias=False
                (norm): SyncBatchNorm(512, eps=1e-05, momentum=0.1, affine=True, track_running_stats=True)
              )
              (1): ReLU(inplace=True)
            )
            (embed): Sequential(
              (0): Conv2d(
                1024, 256, kernel_size=(1, 1), stride=(1, 1), bias=False
                (norm): SyncBatchNorm(256, eps=1e-05, momentum=0.1, affine=True, track_running_stats=True)
              )
              (1): ReLU(inplace=True)
              (2): Conv2d(256, 576, kernel_size=(1, 1), stride=(1, 1))
              (3): GroupNorm(64, 576, eps=1e-05, affine=True)
            )
            (conv1x1): Sequential(
              (0): Conv2d(512, 512, kernel_size=(1, 1), stride=(1, 1), bias=False)
              (1): SyncBatchNorm(512, eps=1e-05, momentum=0.1, affine=True, track_running_stats=True)
            )
            (local_conv): LocalConvolution()
            (bn): SyncBatchNorm(512, eps=1e-05, momentum=0.1, affine=True, track_running_stats=True)
            (act): SiLU(inplace=True)
            (se): Sequential(
              (0): Conv2d(
                512, 256, kernel_size=(1, 1), stride=(1, 1)
                (norm): SyncBatchNorm(256, eps=1e-05, momentum=0.1, affine=True, track_running_stats=True)
              )
              (1): ReLU(inplace=True)
              (2): Conv2d(256, 1024, kernel_size=(1, 1), stride=(1, 1))
            )
          )
          (conv3): Conv2d(
            512, 2048, kernel_size=(1, 1), stride=(1, 1), bias=False
            (norm): SyncBatchNorm(2048, eps=1e-05, momentum=0.1, affine=True, track_running_stats=True)
          )
        )
      )
    )
  )
  (proposal_generator): RPN(
    (rpn_head): StandardRPNHead(
      (conv): Conv2d(256, 256, kernel_size=(3, 3), stride=(1, 1), padding=(1, 1))
      (objectness_logits): Conv2d(256, 3, kernel_size=(1, 1), stride=(1, 1))
      (anchor_deltas): Conv2d(256, 12, kernel_size=(1, 1), stride=(1, 1))
    )
    (anchor_generator): DefaultAnchorGenerator(
      (cell_anchors): BufferList()
    )
  )
  (roi_heads): CascadeROIHeads(
    (box_pooler): ROIPooler(
      (level_poolers): ModuleList(
        (0): ROIAlign(output_size=(7, 7), spatial_scale=0.25, sampling_ratio=0, aligned=True)
        (1): ROIAlign(output_size=(7, 7), spatial_scale=0.125, sampling_ratio=0, aligned=True)
        (2): ROIAlign(output_size=(7, 7), spatial_scale=0.0625, sampling_ratio=0, aligned=True)
        (3): ROIAlign(output_size=(7, 7), spatial_scale=0.03125, sampling_ratio=0, aligned=True)
      )
    )
    (box_head): ModuleList(
      (0): FastRCNNConvFCHead(
        (conv1): Conv2d(
          256, 256, kernel_size=(3, 3), stride=(1, 1), padding=(1, 1), bias=False
          (norm): SyncBatchNorm(256, eps=1e-05, momentum=0.1, affine=True, track_running_stats=True)
          (activation): ReLU()
        )
        (conv2): Conv2d(
          256, 256, kernel_size=(3, 3), stride=(1, 1), padding=(1, 1), bias=False
          (norm): SyncBatchNorm(256, eps=1e-05, momentum=0.1, affine=True, track_running_stats=True)
          (activation): ReLU()
        )
        (conv3): Conv2d(
          256, 256, kernel_size=(3, 3), stride=(1, 1), padding=(1, 1), bias=False
          (norm): SyncBatchNorm(256, eps=1e-05, momentum=0.1, affine=True, track_running_stats=True)
          (activation): ReLU()
        )
        (conv4): Conv2d(
          256, 256, kernel_size=(3, 3), stride=(1, 1), padding=(1, 1), bias=False
          (norm): SyncBatchNorm(256, eps=1e-05, momentum=0.1, affine=True, track_running_stats=True)
          (activation): ReLU()
        )
        (flatten): Flatten(start_dim=1, end_dim=-1)
        (fc1): Linear(in_features=12544, out_features=1024, bias=True)
        (fc_relu1): ReLU()
      )
      (1): FastRCNNConvFCHead(
        (conv1): Conv2d(
          256, 256, kernel_size=(3, 3), stride=(1, 1), padding=(1, 1), bias=False
          (norm): SyncBatchNorm(256, eps=1e-05, momentum=0.1, affine=True, track_running_stats=True)
          (activation): ReLU()
        )
        (conv2): Conv2d(
          256, 256, kernel_size=(3, 3), stride=(1, 1), padding=(1, 1), bias=False
          (norm): SyncBatchNorm(256, eps=1e-05, momentum=0.1, affine=True, track_running_stats=True)
          (activation): ReLU()
        )
        (conv3): Conv2d(
          256, 256, kernel_size=(3, 3), stride=(1, 1), padding=(1, 1), bias=False
          (norm): SyncBatchNorm(256, eps=1e-05, momentum=0.1, affine=True, track_running_stats=True)
          (activation): ReLU()
        )
        (conv4): Conv2d(
          256, 256, kernel_size=(3, 3), stride=(1, 1), padding=(1, 1), bias=False
          (norm): SyncBatchNorm(256, eps=1e-05, momentum=0.1, affine=True, track_running_stats=True)
          (activation): ReLU()
        )
        (flatten): Flatten(start_dim=1, end_dim=-1)
        (fc1): Linear(in_features=12544, out_features=1024, bias=True)
        (fc_relu1): ReLU()
      )
      (2): FastRCNNConvFCHead(
        (conv1): Conv2d(
          256, 256, kernel_size=(3, 3), stride=(1, 1), padding=(1, 1), bias=False
          (norm): SyncBatchNorm(256, eps=1e-05, momentum=0.1, affine=True, track_running_stats=True)
          (activation): ReLU()
        )
        (conv2): Conv2d(
          256, 256, kernel_size=(3, 3), stride=(1, 1), padding=(1, 1), bias=False
          (norm): SyncBatchNorm(256, eps=1e-05, momentum=0.1, affine=True, track_running_stats=True)
          (activation): ReLU()
        )
        (conv3): Conv2d(
          256, 256, kernel_size=(3, 3), stride=(1, 1), padding=(1, 1), bias=False
          (norm): SyncBatchNorm(256, eps=1e-05, momentum=0.1, affine=True, track_running_stats=True)
          (activation): ReLU()
        )
        (conv4): Conv2d(
          256, 256, kernel_size=(3, 3), stride=(1, 1), padding=(1, 1), bias=False
          (norm): SyncBatchNorm(256, eps=1e-05, momentum=0.1, affine=True, track_running_stats=True)
          (activation): ReLU()
        )
        (flatten): Flatten(start_dim=1, end_dim=-1)
        (fc1): Linear(in_features=12544, out_features=1024, bias=True)
        (fc_relu1): ReLU()
      )
    )
    (box_predictor): ModuleList(
      (0): FastRCNNOutputLayers(
        (cls_score): Linear(in_features=1024, out_features=81, bias=True)
        (bbox_pred): Linear(in_features=1024, out_features=4, bias=True)
      )
      (1): FastRCNNOutputLayers(
        (cls_score): Linear(in_features=1024, out_features=81, bias=True)
        (bbox_pred): Linear(in_features=1024, out_features=4, bias=True)
      )
      (2): FastRCNNOutputLayers(
        (cls_score): Linear(in_features=1024, out_features=81, bias=True)
        (bbox_pred): Linear(in_features=1024, out_features=4, bias=True)
      )
    )
    (mask_pooler): ROIPooler(
      (level_poolers): ModuleList(
        (0): ROIAlign(output_size=(14, 14), spatial_scale=0.25, sampling_ratio=0, aligned=True)
        (1): ROIAlign(output_size=(14, 14), spatial_scale=0.125, sampling_ratio=0, aligned=True)
        (2): ROIAlign(output_size=(14, 14), spatial_scale=0.0625, sampling_ratio=0, aligned=True)
        (3): ROIAlign(output_size=(14, 14), spatial_scale=0.03125, sampling_ratio=0, aligned=True)
      )
    )
    (mask_head): MaskRCNNConvUpsampleHead(
      (mask_fcn1): Conv2d(
        256, 256, kernel_size=(3, 3), stride=(1, 1), padding=(1, 1), bias=False
        (norm): SyncBatchNorm(256, eps=1e-05, momentum=0.1, affine=True, track_running_stats=True)
        (activation): ReLU()
      )
      (mask_fcn2): Conv2d(
        256, 256, kernel_size=(3, 3), stride=(1, 1), padding=(1, 1), bias=False
        (norm): SyncBatchNorm(256, eps=1e-05, momentum=0.1, affine=True, track_running_stats=True)
        (activation): ReLU()
      )
      (mask_fcn3): Conv2d(
        256, 256, kernel_size=(3, 3), stride=(1, 1), padding=(1, 1), bias=False
        (norm): SyncBatchNorm(256, eps=1e-05, momentum=0.1, affine=True, track_running_stats=True)
        (activation): ReLU()
      )
      (mask_fcn4): Conv2d(
        256, 256, kernel_size=(3, 3), stride=(1, 1), padding=(1, 1), bias=False
        (norm): SyncBatchNorm(256, eps=1e-05, momentum=0.1, affine=True, track_running_stats=True)
        (activation): ReLU()
      )
      (deconv): ConvTranspose2d(256, 256, kernel_size=(2, 2), stride=(2, 2))
      (deconv_relu): ReLU()
      (predictor): Conv2d(256, 80, kernel_size=(1, 1), stride=(1, 1))
    )
  )
)
[07/30 13:12:23] d2.data.datasets.coco INFO: Loading datasets/coco/annotations/instances_train2017.json takes 21.69 seconds.
[07/30 13:12:24] d2.data.datasets.coco INFO: Loaded 118287 images in COCO format from datasets/coco/annotations/instances_train2017.json
[07/30 13:12:35] d2.data.build INFO: Removed 1021 images with no usable annotations. 117266 images left.
…
  WEIGHT_DECAY_BIAS: 0.0001
  WEIGHT_DECAY_NORM: 0.0
TEST:
  AUG:
    ENABLED: False
    FLIP: True
    MAX_SIZE: 4000
    MIN_SIZES: (400, 500, 600, 700, 800, 900, 1000, 1100, 1200)
  DETECTIONS_PER_IMAGE: 100
  EVAL_PERIOD: 0
  EXPECTED_RESULTS: []
  KEYPOINT_OKS_SIGMAS: []
  PRECISE_BN:
    ENABLED: True
    NUM_ITER: 200
VERSION: 2
VIS_PERIOD: 0
[07/31 15:31:25] detectron2 INFO: Full config saved to ./output/config.yaml
[07/31 15:31:25] d2.utils.env INFO: Using a generated random seed 25630956
[07/31 15:31:27] d2.engine.defaults INFO: Model:
GeneralizedRCNN(
  (backbone): FPN(
    (fpn_lateral2): Conv2d(
      256, 256, kernel_size=(1, 1), stride=(1, 1), bias=False
      (norm): SyncBatchNorm(256, eps=1e-05, momentum=0.1, affine=True, track_running_stats=True)
    )
    (fpn_output2): Conv2d(
      256, 256, kernel_size=(3, 3), stride=(1, 1), padding=(1, 1), bias=False
      (norm): SyncBatchNorm(256, eps=1e-05, momentum=0.1, affine=True, track_running_stats=True)
    )
    (fpn_lateral3): Conv2d(
      512, 256, kernel_size=(1, 1), stride=(1, 1), bias=False
      (norm): SyncBatchNorm(256, eps=1e-05, momentum=0.1, affine=True, track_running_stats=True)
    )
    (fpn_output3): Conv2d(
      256, 256, kernel_size=(3, 3), stride=(1, 1), padding=(1, 1), bias=False
      (norm): SyncBatchNorm(256, eps=1e-05, momentum=0.1, affine=True, track_running_stats=True)
    )
    (fpn_lateral4): Conv2d(
      1024, 256, kernel_size=(1, 1), stride=(1, 1), bias=False
      (norm): SyncBatchNorm(256, eps=1e-05, momentum=0.1, affine=True, track_running_stats=True)
    )
    (fpn_output4): Conv2d(
      256, 256, kernel_size=(3, 3), stride=(1, 1), padding=(1, 1), bias=False
      (norm): SyncBatchNorm(256, eps=1e-05, momentum=0.1, affine=True, track_running_stats=True)
    )
    (fpn_lateral5): Conv2d(
      2048, 256, kernel_size=(1, 1), stride=(1, 1), bias=False
      (norm): SyncBatchNorm(256, eps=1e-05, momentum=0.1, affine=True, track_running_stats=True)
    )
    (fpn_output5): Conv2d(
      256, 256, kernel_size=(3, 3), stride=(1, 1), padding=(1, 1), bias=False
      (norm): SyncBatchNorm(256, eps=1e-05, momentum=0.1, affine=True, track_running_stats=True)
    )
    (top_block): LastLevelMaxPool()
    (bottom_up): SECoTNetD(
      (stem): BasicStem(
        (conv1): Sequential(
          (0): Conv2d(3, 64, kernel_size=(3, 3), stride=(2, 2), padding=(1, 1), bias=False)
          (1): FrozenBatchNorm2d(num_features=64, eps=1e-05)
          (2): ReLU(inplace=True)
          (3): Conv2d(64, 64, kernel_size=(3, 3), stride=(1, 1), padding=(1, 1), bias=False)
          (4): FrozenBatchNorm2d(num_features=64, eps=1e-05)
          (5): ReLU(inplace=True)
          (6): Conv2d(64, 128, kernel_size=(3, 3), stride=(1, 1), padding=(1, 1), bias=False)
          (7): FrozenBatchNorm2d(num_features=128, eps=1e-05)
        )
      )
      (res2): Sequential(
        (0): CoTBlock(
          (shortcut): Sequential(
            (0): AvgPool2d(kernel_size=2, stride=2, padding=0)
            (1): Conv2d(
              128, 256, kernel_size=(1, 1), stride=(1, 1), bias=False
              (norm): FrozenBatchNorm2d(num_features=256, eps=1e-05)
            )
          )
          (conv1): Conv2d(
            128, 64, kernel_size=(1, 1), stride=(1, 1), bias=False
            (norm): FrozenBatchNorm2d(num_features=64, eps=1e-05)
          )
          (conv2): SplitAttnConv2d(
            (conv): Conv2d(64, 64, kernel_size=(3, 3), stride=(2, 2), padding=(1, 1), bias=False)
            (bn0): FrozenBatchNorm2d(num_features=64, eps=1e-05)
            (act0): SiLU(inplace=True)
            (fc1): Conv2d(64, 32, kernel_size=(1, 1), stride=(1, 1))
            (bn1): FrozenBatchNorm2d(num_features=32, eps=1e-05)
            (act1): SiLU(inplace=True)
            (fc2): Conv2d(32, 64, kernel_size=(1, 1), stride=(1, 1))
            (rsoftmax): RadixSoftmax()
          )
          (conv3): Conv2d(
            64, 256, kernel_size=(1, 1), stride=(1, 1), bias=False
            (norm): FrozenBatchNorm2d(num_features=256, eps=1e-05)
          )
        )
        (1): CoTBlock(
          (conv1): Conv2d(
            256, 64, kernel_size=(1, 1), stride=(1, 1), bias=False
            (norm): FrozenBatchNorm2d(num_features=64, eps=1e-05)
          )
          (conv2): SplitAttnConv2d(
            (conv): Conv2d(64, 64, kernel_size=(3, 3), stride=(1, 1), padding=(1, 1), bias=False)
            (bn0): FrozenBatchNorm2d(num_features=64, eps=1e-05)
            (act0): SiLU(inplace=True)
            (fc1): Conv2d(64, 32, kernel_size=(1, 1), stride=(1, 1))
            (bn1): FrozenBatchNorm2d(num_features=32, eps=1e-05)
            (act1): SiLU(inplace=True)
            (fc2): Conv2d(32, 64, kernel_size=(1, 1), stride=(1, 1))
            (rsoftmax): RadixSoftmax()
          )
          (conv3): Conv2d(
            64, 256, kernel_size=(1, 1), stride=(1, 1), bias=False
            (norm): FrozenBatchNorm2d(num_features=256, eps=1e-05)
          )
        )
        (2): CoTBlock(
          (conv1): Conv2d(
            256, 64, kernel_size=(1, 1), stride=(1, 1), bias=False
            (norm): FrozenBatchNorm2d(num_features=64, eps=1e-05)
          )
          (conv2): SplitAttnConv2d(
            (conv): Conv2d(64, 64, kernel_size=(3, 3), stride=(1, 1), padding=(1, 1), bias=False)
            (bn0): FrozenBatchNorm2d(num_features=64, eps=1e-05)
            (act0): SiLU(inplace=True)
            (fc1): Conv2d(64, 32, kernel_size=(1, 1), stride=(1, 1))
            (bn1): FrozenBatchNorm2d(num_features=32, eps=1e-05)
            (act1): SiLU(inplace=True)
            (fc2): Conv2d(32, 64, kernel_size=(1, 1), stride=(1, 1))
            (rsoftmax): RadixSoftmax()
          )
          (conv3): Conv2d(
            64, 256, kernel_size=(1, 1), stride=(1, 1), bias=False
            (norm): FrozenBatchNorm2d(num_features=256, eps=1e-05)
          )
        )
      )
      (res3): Sequential(
        (0): CoTBlock(
          (shortcut): Sequential(
            (0): AvgPool2d(kernel_size=2, stride=2, padding=0)
            (1): Conv2d(
              256, 512, kernel_size=(1, 1), stride=(1, 1), bias=False
              (norm): SyncBatchNorm(512, eps=1e-05, momentum=0.1, affine=True, track_running_stats=True)
            )
          )
          (conv1): Conv2d(
            256, 128, kernel_size=(1, 1), stride=(1, 1), bias=False
            (norm): SyncBatchNorm(128, eps=1e-05, momentum=0.1, affine=True, track_running_stats=True)
          )
          (conv2): SplitAttnConv2d(
            (conv): Conv2d(128, 128, kernel_size=(3, 3), stride=(2, 2), padding=(1, 1), bias=False)
            (bn0): SyncBatchNorm(128, eps=1e-05, momentum=0.1, affine=True, track_running_stats=True)
            (act0): SiLU(inplace=True)
            (fc1): Conv2d(128, 32, kernel_size=(1, 1), stride=(1, 1))
            (bn1): SyncBatchNorm(32, eps=1e-05, momentum=0.1, affine=True, track_running_stats=True)
            (act1): SiLU(inplace=True)
            (fc2): Conv2d(32, 128, kernel_size=(1, 1), stride=(1, 1))
            (rsoftmax): RadixSoftmax()
          )
          (conv3): Conv2d(
            128, 512, kernel_size=(1, 1), stride=(1, 1), bias=False
            (norm): SyncBatchNorm(512, eps=1e-05, momentum=0.1, affine=True, track_running_stats=True)
          )
        )
        (1): CoTBlock(
          (conv1): Conv2d(
            512, 128, kernel_size=(1, 1), stride=(1, 1), bias=False
            (norm): SyncBatchNorm(128, eps=1e-05, momentum=0.1, affine=True, track_running_stats=True)
          )
          (conv2): SplitAttnConv2d(
            (conv): Conv2d(128, 128, kernel_size=(3, 3), stride=(1, 1), padding=(1, 1), bias=False)
            (bn0): SyncBatchNorm(128, eps=1e-05, momentum=0.1, affine=True, track_running_stats=True)
            (act0): SiLU(inplace=True)
            (fc1): Conv2d(128, 32, kernel_size=(1, 1), stride=(1, 1))
            (bn1): SyncBatchNorm(32, eps=1e-05, momentum=0.1, affine=True, track_running_stats=True)
            (act1): SiLU(inplace=True)
            (fc2): Conv2d(32, 128, kernel_size=(1, 1), stride=(1, 1))
            (rsoftmax): RadixSoftmax()
          )
          (conv3): Conv2d(
            128, 512, kernel_size=(1, 1), stride=(1, 1), bias=False
            (norm): SyncBatchNorm(512, eps=1e-05, momentum=0.1, affine=True, track_running_stats=True)
          )
        )
        (2): CoTBlock(
          (conv1): Conv2d(
            512, 128, kernel_size=(1, 1), stride=(1, 1), bias=False
            (norm): SyncBatchNorm(128, eps=1e-05, momentum=0.1, affine=True, track_running_stats=True)
          )
          (conv2): SplitAttnConv2d(
            (conv): Conv2d(128, 128, kernel_size=(3, 3), stride=(1, 1), padding=(1, 1), bias=False)
            (bn0): SyncBatchNorm(128, eps=1e-05, momentum=0.1, affine=True, track_running_stats=True)
            (act0): SiLU(inplace=True)
            (fc1): Conv2d(128, 32, kernel_size=(1, 1), stride=(1, 1))
            (bn1): SyncBatchNorm(32, eps=1e-05, momentum=0.1, affine=True, track_running_stats=True)
            (act1): SiLU(inplace=True)
            (fc2): Conv2d(32, 128, kernel_size=(1, 1), stride=(1, 1))
            (rsoftmax): RadixSoftmax()
          )
          (conv3): Conv2d(
            128, 512, kernel_size=(1, 1), stride=(1, 1), bias=False
            (norm): SyncBatchNorm(512, eps=1e-05, momentum=0.1, affine=True, track_running_stats=True)
          )
        )
        (3): CoTBlock(
          (conv1): Conv2d(
            512, 128, kernel_size=(1, 1), stride=(1, 1), bias=False
            (norm): SyncBatchNorm(128, eps=1e-05, momentum=0.1, affine=True, track_running_stats=True)
          )
          (conv2): SplitAttnConv2d(
            (conv): Conv2d(128, 128, kernel_size=(3, 3), stride=(1, 1), padding=(1, 1), bias=False)
            (bn0): SyncBatchNorm(128, eps=1e-05, momentum=0.1, affine=True, track_running_stats=True)
            (act0): SiLU(inplace=True)
            (fc1): Conv2d(128, 32, kernel_size=(1, 1), stride=(1, 1))
            (bn1): SyncBatchNorm(32, eps=1e-05, momentum=0.1, affine=True, track_running_stats=True)
            (act1): SiLU(inplace=True)
            (fc2): Conv2d(32, 128, kernel_size=(1, 1), stride=(1, 1))
            (rsoftmax): RadixSoftmax()
          )
          (conv3): Conv2d(
            128, 512, kernel_size=(1, 1), stride=(1, 1), bias=False
            (norm): SyncBatchNorm(512, eps=1e-05, momentum=0.1, affine=True, track_running_stats=True)
          )
        )
      )
      (res4): Sequential(
        (0): CoTBlock(
          (shortcut): Sequential(
            (0): AvgPool2d(kernel_size=2, stride=2, padding=0)
            (1): Conv2d(
              512, 1024, kernel_size=(1, 1), stride=(1, 1), bias=False
              (norm): SyncBatchNorm(1024, eps=1e-05, momentum=0.1, affine=True, track_running_stats=True)
            )
          )
          (conv1): Conv2d(
            512, 256, kernel_size=(1, 1), stride=(1, 1), bias=False
            (norm): SyncBatchNorm(256, eps=1e-05, momentum=0.1, affine=True, track_running_stats=True)
          )
          (conv2): CoTLayer(
            (key_embed): Sequential(
              (0): Conv2d(
                256, 256, kernel_size=(3, 3), stride=(1, 1), padding=(1, 1), groups=4, bias=False
                (norm): SyncBatchNorm(256, eps=1e-05, momentum=0.1, affine=True, track_running_stats=True)
              )
              (1): ReLU(inplace=True)
            )
            (embed): Sequential(
              (0): Conv2d(
                512, 128, kernel_size=(1, 1), stride=(1, 1), bias=False
                (norm): SyncBatchNorm(128, eps=1e-05, momentum=0.1, affine=True, track_running_stats=True)
              )
              (1): ReLU(inplace=True)
              (2): Conv2d(128, 288, kernel_size=(1, 1), stride=(1, 1))
              (3): GroupNorm(32, 288, eps=1e-05, affine=True)
            )
            (conv1x1): Sequential(
              (0): Conv2d(256, 256, kernel_size=(1, 1), stride=(1, 1), bias=False)
              (1): SyncBatchNorm(256, eps=1e-05, momentum=0.1, affine=True, track_running_stats=True)
            )
            (local_conv): LocalConvolution()
            (bn): SyncBatchNorm(256, eps=1e-05, momentum=0.1, affine=True, track_running_stats=True)
            (act): SiLU(inplace=True)
            (se): Sequential(
              (0): Conv2d(
                256, 128, kernel_size=(1, 1), stride=(1, 1)
                (norm): SyncBatchNorm(128, eps=1e-05, momentum=0.1, affine=True, track_running_stats=True)
              )
              (1): ReLU(inplace=True)
              (2): Conv2d(128, 512, kernel_size=(1, 1), stride=(1, 1))
            )
          )
          (avd): AvgPool2d(kernel_size=3, stride=2, padding=1)
          (conv3): Conv2d(
            256, 1024, kernel_size=(1, 1), stride=(1, 1), bias=False
            (norm): SyncBatchNorm(1024, eps=1e-05, momentum=0.1, affine=True, track_running_stats=True)
          )
        )
        (1): CoTBlock(
          (conv1): Conv2d(
            1024, 256, kernel_size=(1, 1), stride=(1, 1), bias=False
            (norm): SyncBatchNorm(256, eps=1e-05, momentum=0.1, affine=True, track_running_stats=True)
          )
          (conv2): SplitAttnConv2d(
            (conv): Conv2d(256, 256, kernel_size=(3, 3), stride=(1, 1), padding=(1, 1), bias=False)
            (bn0): SyncBatchNorm(256, eps=1e-05, momentum=0.1, affine=True, track_running_stats=True)
            (act0): SiLU(inplace=True)
            (fc1): Conv2d(256, 64, kernel_size=(1, 1), stride=(1, 1))
            (bn1): SyncBatchNorm(64, eps=1e-05, momentum=0.1, affine=True, track_running_stats=True)
            (act1): SiLU(inplace=True)
            (fc2): Conv2d(64, 256, kernel_size=(1, 1), stride=(1, 1))
            (rsoftmax): RadixSoftmax()
          )
          (conv3): Conv2d(
            256, 1024, kernel_size=(1, 1), stride=(1, 1), bias=False
            (norm): SyncBatchNorm(1024, eps=1e-05, momentum=0.1, affine=True, track_running_stats=True)
          )
        )
        (2): CoTBlock(
          (conv1): Conv2d(
            1024, 256, kernel_size=(1, 1), stride=(1, 1), bias=False
            (norm): SyncBatchNorm(256, eps=1e-05, momentum=0.1, affine=True, track_running_stats=True)
          )
          (conv2): CoTLayer(
            (key_embed): Sequential(
              (0): Conv2d(
                256, 256, kernel_size=(3, 3), stride=(1, 1), padding=(1, 1), groups=4, bias=False
                (norm): SyncBatchNorm(256, eps=1e-05, momentum=0.1, affine=True, track_running_stats=True)
              )
              (1): ReLU(inplace=True)
            )
            (embed): Sequential(
              (0): Conv2d(
                512, 128, kernel_size=(1, 1), stride=(1, 1), bias=False
                (norm): SyncBatchNorm(128, eps=1e-05, momentum=0.1, affine=True, track_running_stats=True)
              )
              (1): ReLU(inplace=True)
              (2): Conv2d(128, 288, kernel_size=(1, 1), stride=(1, 1))
              (3): GroupNorm(32, 288, eps=1e-05, affine=True)
            )
            (conv1x1): Sequential(
              (0): Conv2d(256, 256, kernel_size=(1, 1), stride=(1, 1), bias=False)
              (1): SyncBatchNorm(256, eps=1e-05, momentum=0.1, affine=True, track_running_stats=True)
            )
            (local_conv): LocalConvolution()
            (bn): SyncBatchNorm(256, eps=1e-05, momentum=0.1, affine=True, track_running_stats=True)
            (act): SiLU(inplace=True)
            (se): Sequential(
              (0): Conv2d(
                256, 128, kernel_size=(1, 1), stride=(1, 1)
                (norm): SyncBatchNorm(128, eps=1e-05, momentum=0.1, affine=True, track_running_stats=True)
              )
              (1): ReLU(inplace=True)
              (2): Conv2d(128, 512, kernel_size=(1, 1), stride=(1, 1))
            )
          )
          (conv3): Conv2d(
            256, 1024, kernel_size=(1, 1), stride=(1, 1), bias=False
            (norm): SyncBatchNorm(1024, eps=1e-05, momentum=0.1, affine=True, track_running_stats=True)
          )
        )
        (3): CoTBlock(
          (conv1): Conv2d(
            1024, 256, kernel_size=(1, 1), stride=(1, 1), bias=False
            (norm): SyncBatchNorm(256, eps=1e-05, momentum=0.1, affine=True, track_running_stats=True)
          )
          (conv2): SplitAttnConv2d(
            (conv): Conv2d(256, 256, kernel_size=(3, 3), stride=(1, 1), padding=(1, 1), bias=False)
            (bn0): SyncBatchNorm(256, eps=1e-05, momentum=0.1, affine=True, track_running_stats=True)
            (act0): SiLU(inplace=True)
            (fc1): Conv2d(256, 64, kernel_size=(1, 1), stride=(1, 1))
            (bn1): SyncBatchNorm(64, eps=1e-05, momentum=0.1, affine=True, track_running_stats=True)
            (act1): SiLU(inplace=True)
            (fc2): Conv2d(64, 256, kernel_size=(1, 1), stride=(1, 1))
            (rsoftmax): RadixSoftmax()
          )
          (conv3): Conv2d(
            256, 1024, kernel_size=(1, 1), stride=(1, 1), bias=False
            (norm): SyncBatchNorm(1024, eps=1e-05, momentum=0.1, affine=True, track_running_stats=True)
          )
        )
        (4): CoTBlock(
          (conv1): Conv2d(
            1024, 256, kernel_size=(1, 1), stride=(1, 1), bias=False
            (norm): SyncBatchNorm(256, eps=1e-05, momentum=0.1, affine=True, track_running_stats=True)
          )
          (conv2): CoTLayer(
            (key_embed): Sequential(
              (0): Conv2d(
                256, 256, kernel_size=(3, 3), stride=(1, 1), padding=(1, 1), groups=4, bias=False
                (norm): SyncBatchNorm(256, eps=1e-05, momentum=0.1, affine=True, track_running_stats=True)
              )
              (1): ReLU(inplace=True)
            )
            (embed): Sequential(
              (0): Conv2d(
                512, 128, kernel_size=(1, 1), stride=(1, 1), bias=False
                (norm): SyncBatchNorm(128, eps=1e-05, momentum=0.1, affine=True, track_running_stats=True)
              )
              (1): ReLU(inplace=True)
              (2): Conv2d(128, 288, kernel_size=(1, 1), stride=(1, 1))
              (3): GroupNorm(32, 288, eps=1e-05, affine=True)
            )
            (conv1x1): Sequential(
              (0): Conv2d(256, 256, kernel_size=(1, 1), stride=(1, 1), bias=False)
              (1): SyncBatchNorm(256, eps=1e-05, momentum=0.1, affine=True, track_running_stats=True)
            )
            (local_conv): LocalConvolution()
            (bn): SyncBatchNorm(256, eps=1e-05, momentum=0.1, affine=True, track_running_stats=True)
            (act): SiLU(inplace=True)
            (se): Sequential(
              (0): Conv2d(
                256, 128, kernel_size=(1, 1), stride=(1, 1)
                (norm): SyncBatchNorm(128, eps=1e-05, momentum=0.1, affine=True, track_running_stats=True)
              )
              (1): ReLU(inplace=True)
              (2): Conv2d(128, 512, kernel_size=(1, 1), stride=(1, 1))
            )
          )
          (conv3): Conv2d(
            256, 1024, kernel_size=(1, 1), stride=(1, 1), bias=False
            (norm): SyncBatchNorm(1024, eps=1e-05, momentum=0.1, affine=True, track_running_stats=True)
          )
        )
        (5): CoTBlock(
          (conv1): Conv2d(
            1024, 256, kernel_size=(1, 1), stride=(1, 1), bias=False
            (norm): SyncBatchNorm(256, eps=1e-05, momentum=0.1, affine=True, track_running_stats=True)
          )
          (conv2): SplitAttnConv2d(
            (conv): Conv2d(256, 256, kernel_size=(3, 3), stride=(1, 1), padding=(1, 1), bias=False)
            (bn0): SyncBatchNorm(256, eps=1e-05, momentum=0.1, affine=True, track_running_stats=True)
            (act0): SiLU(inplace=True)
            (fc1): Conv2d(256, 64, kernel_size=(1, 1), stride=(1, 1))
            (bn1): SyncBatchNorm(64, eps=1e-05, momentum=0.1, affine=True, track_running_stats=True)
            (act1): SiLU(inplace=True)
            (fc2): Conv2d(64, 256, kernel_size=(1, 1), stride=(1, 1))
            (rsoftmax): RadixSoftmax()
          )
          (conv3): Conv2d(
            256, 1024, kernel_size=(1, 1), stride=(1, 1), bias=False
            (norm): SyncBatchNorm(1024, eps=1e-05, momentum=0.1, affine=True, track_running_stats=True)
          )
        )
        (6): CoTBlock(
          (conv1): Conv2d(
            1024, 256, kernel_size=(1, 1), stride=(1, 1), bias=False
            (norm): SyncBatchNorm(256, eps=1e-05, momentum=0.1, affine=True, track_running_stats=True)
          )
          (conv2): CoTLayer(
            (key_embed): Sequential(
              (0): Conv2d(
                256, 256, kernel_size=(3, 3), stride=(1, 1), padding=(1, 1), groups=4, bias=False
                (norm): SyncBatchNorm(256, eps=1e-05, momentum=0.1, affine=True, track_running_stats=True)
              )
              (1): ReLU(inplace=True)
            )
            (embed): Sequential(
              (0): Conv2d(
                512, 128, kernel_size=(1, 1), stride=(1, 1), bias=False
                (norm): SyncBatchNorm(128, eps=1e-05, momentum=0.1, affine=True, track_running_stats=True)
              )
              (1): ReLU(inplace=True)
              (2): Conv2d(128, 288, kernel_size=(1, 1), stride=(1, 1))
              (3): GroupNorm(32, 288, eps=1e-05, affine=True)
            )
            (conv1x1): Sequential(
              (0): Conv2d(256, 256, kernel_size=(1, 1), stride=(1, 1), bias=False)
              (1): SyncBatchNorm(256, eps=1e-05, momentum=0.1, affine=True, track_running_stats=True)
            )
            (local_conv): LocalConvolution()
            (bn): SyncBatchNorm(256, eps=1e-05, momentum=0.1, affine=True, track_running_stats=True)
            (act): SiLU(inplace=True)
            (se): Sequential(
              (0): Conv2d(
                256, 128, kernel_size=(1, 1), stride=(1, 1)
                (norm): SyncBatchNorm(128, eps=1e-05, momentum=0.1, affine=True, track_running_stats=True)
              )
              (1): ReLU(inplace=True)
              (2): Conv2d(128, 512, kernel_size=(1, 1), stride=(1, 1))
            )
          )
          (conv3): Conv2d(
            256, 1024, kernel_size=(1, 1), stride=(1, 1), bias=False
            (norm): SyncBatchNorm(1024, eps=1e-05, momentum=0.1, affine=True, track_running_stats=True)
          )
        )
        (7): CoTBlock(
          (conv1): Conv2d(
            1024, 256, kernel_size=(1, 1), stride=(1, 1), bias=False
            (norm): SyncBatchNorm(256, eps=1e-05, momentum=0.1, affine=True, track_running_stats=True)
          )
          (conv2): SplitAttnConv2d(
            (conv): Conv2d(256, 256, kernel_size=(3, 3), stride=(1, 1), padding=(1, 1), bias=False)
            (bn0): SyncBatchNorm(256, eps=1e-05, momentum=0.1, affine=True, track_running_stats=True)
            (act0): SiLU(inplace=True)
            (fc1): Conv2d(256, 64, kernel_size=(1, 1), stride=(1, 1))
            (bn1): SyncBatchNorm(64, eps=1e-05, momentum=0.1, affine=True, track_running_stats=True)
            (act1): SiLU(inplace=True)
            (fc2): Conv2d(64, 256, kernel_size=(1, 1), stride=(1, 1))
            (rsoftmax): RadixSoftmax()
          )
          (conv3): Conv2d(
            256, 1024, kernel_size=(1, 1), stride=(1, 1), bias=False
            (norm): SyncBatchNorm(1024, eps=1e-05, momentum=0.1, affine=True, track_running_stats=True)
          )
        )
        (8): CoTBlock(
          (conv1): Conv2d(
            1024, 256, kernel_size=(1, 1), stride=(1, 1), bias=False
            (norm): SyncBatchNorm(256, eps=1e-05, momentum=0.1, affine=True, track_running_stats=True)
          )
          (conv2): CoTLayer(
            (key_embed): Sequential(
              (0): Conv2d(
                256, 256, kernel_size=(3, 3), stride=(1, 1), padding=(1, 1), groups=4, bias=False
                (norm): SyncBatchNorm(256, eps=1e-05, momentum=0.1, affine=True, track_running_stats=True)
              )
              (1): ReLU(inplace=True)
            )
            (embed): Sequential(
              (0): Conv2d(
                512, 128, kernel_size=(1, 1), stride=(1, 1), bias=False
                (norm): SyncBatchNorm(128, eps=1e-05, momentum=0.1, affine=True, track_running_stats=True)
              )
              (1): ReLU(inplace=True)
              (2): Conv2d(128, 288, kernel_size=(1, 1), stride=(1, 1))
              (3): GroupNorm(32, 288, eps=1e-05, affine=True)
            )
            (conv1x1): Sequential(
              (0): Conv2d(256, 256, kernel_size=(1, 1), stride=(1, 1), bias=False)
              (1): SyncBatchNorm(256, eps=1e-05, momentum=0.1, affine=True, track_running_stats=True)
            )
            (local_conv): LocalConvolution()
            (bn): SyncBatchNorm(256, eps=1e-05, momentum=0.1, affine=True, track_running_stats=True)
            (act): SiLU(inplace=True)
            (se): Sequential(
              (0): Conv2d(
                256, 128, kernel_size=(1, 1), stride=(1, 1)
                (norm): SyncBatchNorm(128, eps=1e-05, momentum=0.1, affine=True, track_running_stats=True)
              )
              (1): ReLU(inplace=True)
              (2): Conv2d(128, 512, kernel_size=(1, 1), stride=(1, 1))
            )
          )
          (conv3): Conv2d(
            256, 1024, kernel_size=(1, 1), stride=(1, 1), bias=False
            (norm): SyncBatchNorm(1024, eps=1e-05, momentum=0.1, affine=True, track_running_stats=True)
          )
        )
        (9): CoTBlock(
          (conv1): Conv2d(
            1024, 256, kernel_size=(1, 1), stride=(1, 1), bias=False
            (norm): SyncBatchNorm(256, eps=1e-05, momentum=0.1, affine=True, track_running_stats=True)
          )
          (conv2): SplitAttnConv2d(
            (conv): Conv2d(256, 256, kernel_size=(3, 3), stride=(1, 1), padding=(1, 1), bias=False)
            (bn0): SyncBatchNorm(256, eps=1e-05, momentum=0.1, affine=True, track_running_stats=True)
            (act0): SiLU(inplace=True)
            (fc1): Conv2d(256, 64, kernel_size=(1, 1), stride=(1, 1))
            (bn1): SyncBatchNorm(64, eps=1e-05, momentum=0.1, affine=True, track_running_stats=True)
            (act1): SiLU(inplace=True)
            (fc2): Conv2d(64, 256, kernel_size=(1, 1), stride=(1, 1))
            (rsoftmax): RadixSoftmax()
          )
          (conv3): Conv2d(
            256, 1024, kernel_size=(1, 1), stride=(1, 1), bias=False
            (norm): SyncBatchNorm(1024, eps=1e-05, momentum=0.1, affine=True, track_running_stats=True)
          )
        )
        (10): CoTBlock(
          (conv1): Conv2d(
            1024, 256, kernel_size=(1, 1), stride=(1, 1), bias=False
            (norm): SyncBatchNorm(256, eps=1e-05, momentum=0.1, affine=True, track_running_stats=True)
          )
          (conv2): CoTLayer(
            (key_embed): Sequential(
              (0): Conv2d(
                256, 256, kernel_size=(3, 3), stride=(1, 1), padding=(1, 1), groups=4, bias=False
                (norm): SyncBatchNorm(256, eps=1e-05, momentum=0.1, affine=True, track_running_stats=True)
              )
              (1): ReLU(inplace=True)
            )
            (embed): Sequential(
              (0): Conv2d(
                512, 128, kernel_size=(1, 1), stride=(1, 1), bias=False
                (norm): SyncBatchNorm(128, eps=1e-05, momentum=0.1, affine=True, track_running_stats=True)
              )
              (1): ReLU(inplace=True)
              (2): Conv2d(128, 288, kernel_size=(1, 1), stride=(1, 1))
              (3): GroupNorm(32, 288, eps=1e-05, affine=True)
            )
            (conv1x1): Sequential(
              (0): Conv2d(256, 256, kernel_size=(1, 1), stride=(1, 1), bias=False)
              (1): SyncBatchNorm(256, eps=1e-05, momentum=0.1, affine=True, track_running_stats=True)
            )
            (local_conv): LocalConvolution()
            (bn): SyncBatchNorm(256, eps=1e-05, momentum=0.1, affine=True, track_running_stats=True)
            (act): SiLU(inplace=True)
            (se): Sequential(
              (0): Conv2d(
                256, 128, kernel_size=(1, 1), stride=(1, 1)
                (norm): SyncBatchNorm(128, eps=1e-05, momentum=0.1, affine=True, track_running_stats=True)
              )
              (1): ReLU(inplace=True)
              (2): Conv2d(128, 512, kernel_size=(1, 1), stride=(1, 1))
            )
          )
          (conv3): Conv2d(
            256, 1024, kernel_size=(1, 1), stride=(1, 1), bias=False
            (norm): SyncBatchNorm(1024, eps=1e-05, momentum=0.1, affine=True, track_running_stats=True)
          )
        )
        (11): CoTBlock(
          (conv1): Conv2d(
            1024, 256, kernel_size=(1, 1), stride=(1, 1), bias=False
            (norm): SyncBatchNorm(256, eps=1e-05, momentum=0.1, affine=True, track_running_stats=True)
          )
          (conv2): SplitAttnConv2d(
            (conv): Conv2d(256, 256, kernel_size=(3, 3), stride=(1, 1), padding=(1, 1), bias=False)
            (bn0): SyncBatchNorm(256, eps=1e-05, momentum=0.1, affine=True, track_running_stats=True)
            (act0): SiLU(inplace=True)
            (fc1): Conv2d(256, 64, kernel_size=(1, 1), stride=(1, 1))
            (bn1): SyncBatchNorm(64, eps=1e-05, momentum=0.1, affine=True, track_running_stats=True)
            (act1): SiLU(inplace=True)
            (fc2): Conv2d(64, 256, kernel_size=(1, 1), stride=(1, 1))
            (rsoftmax): RadixSoftmax()
          )
          (conv3): Conv2d(
            256, 1024, kernel_size=(1, 1), stride=(1, 1), bias=False
            (norm): SyncBatchNorm(1024, eps=1e-05, momentum=0.1, affine=True, track_running_stats=True)
          )
        )
        (12): CoTBlock(
          (conv1): Conv2d(
            1024, 256, kernel_size=(1, 1), stride=(1, 1), bias=False
            (norm): SyncBatchNorm(256, eps=1e-05, momentum=0.1, affine=True, track_running_stats=True)
          )
          (conv2): CoTLayer(
            (key_embed): Sequential(
              (0): Conv2d(
                256, 256, kernel_size=(3, 3), stride=(1, 1), padding=(1, 1), groups=4, bias=False
                (norm): SyncBatchNorm(256, eps=1e-05, momentum=0.1, affine=True, track_running_stats=True)
              )
              (1): ReLU(inplace=True)
            )
            (embed): Sequential(
              (0): Conv2d(
                512, 128, kernel_size=(1, 1), stride=(1, 1), bias=False
                (norm): SyncBatchNorm(128, eps=1e-05, momentum=0.1, affine=True, track_running_stats=True)
              )
              (1): ReLU(inplace=True)
              (2): Conv2d(128, 288, kernel_size=(1, 1), stride=(1, 1))
              (3): GroupNorm(32, 288, eps=1e-05, affine=True)
            )
            (conv1x1): Sequential(
              (0): Conv2d(256, 256, kernel_size=(1, 1), stride=(1, 1), bias=False)
              (1): SyncBatchNorm(256, eps=1e-05, momentum=0.1, affine=True, track_running_stats=True)
            )
            (local_conv): LocalConvolution()
            (bn): SyncBatchNorm(256, eps=1e-05, momentum=0.1, affine=True, track_running_stats=True)
            (act): SiLU(inplace=True)
            (se): Sequential(
              (0): Conv2d(
                256, 128, kernel_size=(1, 1), stride=(1, 1)
                (norm): SyncBatchNorm(128, eps=1e-05, momentum=0.1, affine=True, track_running_stats=True)
              )
              (1): ReLU(inplace=True)
              (2): Conv2d(128, 512, kernel_size=(1, 1), stride=(1, 1))
            )
          )
          (conv3): Conv2d(
            256, 1024, kernel_size=(1, 1), stride=(1, 1), bias=False
            (norm): SyncBatchNorm(1024, eps=1e-05, momentum=0.1, affine=True, track_running_stats=True)
          )
        )
        (13): CoTBlock(
          (conv1): Conv2d(
            1024, 256, kernel_size=(1, 1), stride=(1, 1), bias=False
            (norm): SyncBatchNorm(256, eps=1e-05, momentum=0.1, affine=True, track_running_stats=True)
          )
          (conv2): SplitAttnConv2d(
            (conv): Conv2d(256, 256, kernel_size=(3, 3), stride=(1, 1), padding=(1, 1), bias=False)
            (bn0): SyncBatchNorm(256, eps=1e-05, momentum=0.1, affine=True, track_running_stats=True)
            (act0): SiLU(inplace=True)
            (fc1): Conv2d(256, 64, kernel_size=(1, 1), stride=(1, 1))
            (bn1): SyncBatchNorm(64, eps=1e-05, momentum=0.1, affine=True, track_running_stats=True)
            (act1): SiLU(inplace=True)
            (fc2): Conv2d(64, 256, kernel_size=(1, 1), stride=(1, 1))
            (rsoftmax): RadixSoftmax()
          )
          (conv3): Conv2d(
            256, 1024, kernel_size=(1, 1), stride=(1, 1), bias=False
            (norm): SyncBatchNorm(1024, eps=1e-05, momentum=0.1, affine=True, track_running_stats=True)
          )
        )
        (14): CoTBlock(
          (conv1): Conv2d(
            1024, 256, kernel_size=(1, 1), stride=(1, 1), bias=False
            (norm): SyncBatchNorm(256, eps=1e-05, momentum=0.1, affine=True, track_running_stats=True)
          )
          (conv2): CoTLayer(
            (key_embed): Sequential(
              (0): Conv2d(
                256, 256, kernel_size=(3, 3), stride=(1, 1), padding=(1, 1), groups=4, bias=False
                (norm): SyncBatchNorm(256, eps=1e-05, momentum=0.1, affine=True, track_running_stats=True)
              )
              (1): ReLU(inplace=True)
            )
            (embed): Sequential(
              (0): Conv2d(
                512, 128, kernel_size=(1, 1), stride=(1, 1), bias=False
                (norm): SyncBatchNorm(128, eps=1e-05, momentum=0.1, affine=True, track_running_stats=True)
              )
              (1): ReLU(inplace=True)
              (2): Conv2d(128, 288, kernel_size=(1, 1), stride=(1, 1))
              (3): GroupNorm(32, 288, eps=1e-05, affine=True)
            )
            (conv1x1): Sequential(
              (0): Conv2d(256, 256, kernel_size=(1, 1), stride=(1, 1), bias=False)
              (1): SyncBatchNorm(256, eps=1e-05, momentum=0.1, affine=True, track_running_stats=True)
            )
            (local_conv): LocalConvolution()
            (bn): SyncBatchNorm(256, eps=1e-05, momentum=0.1, affine=True, track_running_stats=True)
            (act): SiLU(inplace=True)
            (se): Sequential(
              (0): Conv2d(
                256, 128, kernel_size=(1, 1), stride=(1, 1)
                (norm): SyncBatchNorm(128, eps=1e-05, momentum=0.1, affine=True, track_running_stats=True)
              )
              (1): ReLU(inplace=True)
              (2): Conv2d(128, 512, kernel_size=(1, 1), stride=(1, 1))
            )
          )
          (conv3): Conv2d(
            256, 1024, kernel_size=(1, 1), stride=(1, 1), bias=False
            (norm): SyncBatchNorm(1024, eps=1e-05, momentum=0.1, affine=True, track_running_stats=True)
          )
        )
        (15): CoTBlock(
          (conv1): Conv2d(
            1024, 256, kernel_size=(1, 1), stride=(1, 1), bias=False
            (norm): SyncBatchNorm(256, eps=1e-05, momentum=0.1, affine=True, track_running_stats=True)
          )
          (conv2): SplitAttnConv2d(
            (conv): Conv2d(256, 256, kernel_size=(3, 3), stride=(1, 1), padding=(1, 1), bias=False)
            (bn0): SyncBatchNorm(256, eps=1e-05, momentum=0.1, affine=True, track_running_stats=True)
            (act0): SiLU(inplace=True)
            (fc1): Conv2d(256, 64, kernel_size=(1, 1), stride=(1, 1))
            (bn1): SyncBatchNorm(64, eps=1e-05, momentum=0.1, affine=True, track_running_stats=True)
            (act1): SiLU(inplace=True)
            (fc2): Conv2d(64, 256, kernel_size=(1, 1), stride=(1, 1))
            (rsoftmax): RadixSoftmax()
          )
          (conv3): Conv2d(
            256, 1024, kernel_size=(1, 1), stride=(1, 1), bias=False
            (norm): SyncBatchNorm(1024, eps=1e-05, momentum=0.1, affine=True, track_running_stats=True)
          )
        )
        (16): CoTBlock(
          (conv1): Conv2d(
            1024, 256, kernel_size=(1, 1), stride=(1, 1), bias=False
            (norm): SyncBatchNorm(256, eps=1e-05, momentum=0.1, affine=True, track_running_stats=True)
          )
          (conv2): CoTLayer(
            (key_embed): Sequential(
              (0): Conv2d(
                256, 256, kernel_size=(3, 3), stride=(1, 1), padding=(1, 1), groups=4, bias=False
                (norm): SyncBatchNorm(256, eps=1e-05, momentum=0.1, affine=True, track_running_stats=True)
              )
              (1): ReLU(inplace=True)
            )
            (embed): Sequential(
              (0): Conv2d(
                512, 128, kernel_size=(1, 1), stride=(1, 1), bias=False
                (norm): SyncBatchNorm(128, eps=1e-05, momentum=0.1, affine=True, track_running_stats=True)
              )
              (1): ReLU(inplace=True)
              (2): Conv2d(128, 288, kernel_size=(1, 1), stride=(1, 1))
              (3): GroupNorm(32, 288, eps=1e-05, affine=True)
            )
            (conv1x1): Sequential(
              (0): Conv2d(256, 256, kernel_size=(1, 1), stride=(1, 1), bias=False)
              (1): SyncBatchNorm(256, eps=1e-05, momentum=0.1, affine=True, track_running_stats=True)
            )
            (local_conv): LocalConvolution()
            (bn): SyncBatchNorm(256, eps=1e-05, momentum=0.1, affine=True, track_running_stats=True)
            (act): SiLU(inplace=True)
            (se): Sequential(
              (0): Conv2d(
                256, 128, kernel_size=(1, 1), stride=(1, 1)
                (norm): SyncBatchNorm(128, eps=1e-05, momentum=0.1, affine=True, track_running_stats=True)
              )
              (1): ReLU(inplace=True)
              (2): Conv2d(128, 512, kernel_size=(1, 1), stride=(1, 1))
            )
          )
          (conv3): Conv2d(
            256, 1024, kernel_size=(1, 1), stride=(1, 1), bias=False
            (norm): SyncBatchNorm(1024, eps=1e-05, momentum=0.1, affine=True, track_running_stats=True)
          )
        )
        (17): CoTBlock(
          (conv1): Conv2d(
            1024, 256, kernel_size=(1, 1), stride=(1, 1), bias=False
            (norm): SyncBatchNorm(256, eps=1e-05, momentum=0.1, affine=True, track_running_stats=True)
          )
          (conv2): SplitAttnConv2d(
            (conv): Conv2d(256, 256, kernel_size=(3, 3), stride=(1, 1), padding=(1, 1), bias=False)
            (bn0): SyncBatchNorm(256, eps=1e-05, momentum=0.1, affine=True, track_running_stats=True)
            (act0): SiLU(inplace=True)
            (fc1): Conv2d(256, 64, kernel_size=(1, 1), stride=(1, 1))
            (bn1): SyncBatchNorm(64, eps=1e-05, momentum=0.1, affine=True, track_running_stats=True)
            (act1): SiLU(inplace=True)
            (fc2): Conv2d(64, 256, kernel_size=(1, 1), stride=(1, 1))
            (rsoftmax): RadixSoftmax()
          )
          (conv3): Conv2d(
            256, 1024, kernel_size=(1, 1), stride=(1, 1), bias=False
            (norm): SyncBatchNorm(1024, eps=1e-05, momentum=0.1, affine=True, track_running_stats=True)
          )
        )
        (18): CoTBlock(
          (conv1): Conv2d(
            1024, 256, kernel_size=(1, 1), stride=(1, 1), bias=False
            (norm): SyncBatchNorm(256, eps=1e-05, momentum=0.1, affine=True, track_running_stats=True)
          )
          (conv2): CoTLayer(
            (key_embed): Sequential(
              (0): Conv2d(
                256, 256, kernel_size=(3, 3), stride=(1, 1), padding=(1, 1), groups=4, bias=False
                (norm): SyncBatchNorm(256, eps=1e-05, momentum=0.1, affine=True, track_running_stats=True)
              )
              (1): ReLU(inplace=True)
            )
            (embed): Sequential(
              (0): Conv2d(
                512, 128, kernel_size=(1, 1), stride=(1, 1), bias=False
                (norm): SyncBatchNorm(128, eps=1e-05, momentum=0.1, affine=True, track_running_stats=True)
              )
              (1): ReLU(inplace=True)
              (2): Conv2d(128, 288, kernel_size=(1, 1), stride=(1, 1))
              (3): GroupNorm(32, 288, eps=1e-05, affine=True)
            )
            (conv1x1): Sequential(
              (0): Conv2d(256, 256, kernel_size=(1, 1), stride=(1, 1), bias=False)
              (1): SyncBatchNorm(256, eps=1e-05, momentum=0.1, affine=True, track_running_stats=True)
            )
            (local_conv): LocalConvolution()
            (bn): SyncBatchNorm(256, eps=1e-05, momentum=0.1, affine=True, track_running_stats=True)
            (act): SiLU(inplace=True)
            (se): Sequential(
              (0): Conv2d(
                256, 128, kernel_size=(1, 1), stride=(1, 1)
                (norm): SyncBatchNorm(128, eps=1e-05, momentum=0.1, affine=True, track_running_stats=True)
              )
              (1): ReLU(inplace=True)
              (2): Conv2d(128, 512, kernel_size=(1, 1), stride=(1, 1))
            )
          )
          (conv3): Conv2d(
            256, 1024, kernel_size=(1, 1), stride=(1, 1), bias=False
            (norm): SyncBatchNorm(1024, eps=1e-05, momentum=0.1, affine=True, track_running_stats=True)
          )
        )
        (19): CoTBlock(
          (conv1): Conv2d(
            1024, 256, kernel_size=(1, 1), stride=(1, 1), bias=False
            (norm): SyncBatchNorm(256, eps=1e-05, momentum=0.1, affine=True, track_running_stats=True)
          )
          (conv2): SplitAttnConv2d(
            (conv): Conv2d(256, 256, kernel_size=(3, 3), stride=(1, 1), padding=(1, 1), bias=False)
            (bn0): SyncBatchNorm(256, eps=1e-05, momentum=0.1, affine=True, track_running_stats=True)
            (act0): SiLU(inplace=True)
            (fc1): Conv2d(256, 64, kernel_size=(1, 1), stride=(1, 1))
            (bn1): SyncBatchNorm(64, eps=1e-05, momentum=0.1, affine=True, track_running_stats=True)
            (act1): SiLU(inplace=True)
            (fc2): Conv2d(64, 256, kernel_size=(1, 1), stride=(1, 1))
            (rsoftmax): RadixSoftmax()
          )
          (conv3): Conv2d(
            256, 1024, kernel_size=(1, 1), stride=(1, 1), bias=False
            (norm): SyncBatchNorm(1024, eps=1e-05, momentum=0.1, affine=True, track_running_stats=True)
          )
        )
        (20): CoTBlock(
          (conv1): Conv2d(
            1024, 256, kernel_size=(1, 1), stride=(1, 1), bias=False
            (norm): SyncBatchNorm(256, eps=1e-05, momentum=0.1, affine=True, track_running_stats=True)
          )
          (conv2): CoTLayer(
            (key_embed): Sequential(
              (0): Conv2d(
                256, 256, kernel_size=(3, 3), stride=(1, 1), padding=(1, 1), groups=4, bias=False
                (norm): SyncBatchNorm(256, eps=1e-05, momentum=0.1, affine=True, track_running_stats=True)
              )
              (1): ReLU(inplace=True)
            )
            (embed): Sequential(
              (0): Conv2d(
                512, 128, kernel_size=(1, 1), stride=(1, 1), bias=False
                (norm): SyncBatchNorm(128, eps=1e-05, momentum=0.1, affine=True, track_running_stats=True)
              )
              (1): ReLU(inplace=True)
              (2): Conv2d(128, 288, kernel_size=(1, 1), stride=(1, 1))
              (3): GroupNorm(32, 288, eps=1e-05, affine=True)
            )
            (conv1x1): Sequential(
              (0): Conv2d(256, 256, kernel_size=(1, 1), stride=(1, 1), bias=False)
              (1): SyncBatchNorm(256, eps=1e-05, momentum=0.1, affine=True, track_running_stats=True)
            )
            (local_conv): LocalConvolution()
            (bn): SyncBatchNorm(256, eps=1e-05, momentum=0.1, affine=True, track_running_stats=True)
            (act): SiLU(inplace=True)
            (se): Sequential(
              (0): Conv2d(
                256, 128, kernel_size=(1, 1), stride=(1, 1)
                (norm): SyncBatchNorm(128, eps=1e-05, momentum=0.1, affine=True, track_running_stats=True)
              )
              (1): ReLU(inplace=True)
              (2): Conv2d(128, 512, kernel_size=(1, 1), stride=(1, 1))
            )
          )
          (conv3): Conv2d(
            256, 1024, kernel_size=(1, 1), stride=(1, 1), bias=False
            (norm): SyncBatchNorm(1024, eps=1e-05, momentum=0.1, affine=True, track_running_stats=True)
          )
        )
        (21): CoTBlock(
          (conv1): Conv2d(
            1024, 256, kernel_size=(1, 1), stride=(1, 1), bias=False
            (norm): SyncBatchNorm(256, eps=1e-05, momentum=0.1, affine=True, track_running_stats=True)
          )
          (conv2): SplitAttnConv2d(
            (conv): Conv2d(256, 256, kernel_size=(3, 3), stride=(1, 1), padding=(1, 1), bias=False)
            (bn0): SyncBatchNorm(256, eps=1e-05, momentum=0.1, affine=True, track_running_stats=True)
            (act0): SiLU(inplace=True)
            (fc1): Conv2d(256, 64, kernel_size=(1, 1), stride=(1, 1))
            (bn1): SyncBatchNorm(64, eps=1e-05, momentum=0.1, affine=True, track_running_stats=True)
            (act1): SiLU(inplace=True)
            (fc2): Conv2d(64, 256, kernel_size=(1, 1), stride=(1, 1))
            (rsoftmax): RadixSoftmax()
          )
          (conv3): Conv2d(
            256, 1024, kernel_size=(1, 1), stride=(1, 1), bias=False
            (norm): SyncBatchNorm(1024, eps=1e-05, momentum=0.1, affine=True, track_running_stats=True)
          )
        )
        (22): CoTBlock(
          (conv1): Conv2d(
            1024, 256, kernel_size=(1, 1), stride=(1, 1), bias=False
            (norm): SyncBatchNorm(256, eps=1e-05, momentum=0.1, affine=True, track_running_stats=True)
          )
          (conv2): CoTLayer(
            (key_embed): Sequential(
              (0): Conv2d(
                256, 256, kernel_size=(3, 3), stride=(1, 1), padding=(1, 1), groups=4, bias=False
                (norm): SyncBatchNorm(256, eps=1e-05, momentum=0.1, affine=True, track_running_stats=True)
              )
              (1): ReLU(inplace=True)
            )
            (embed): Sequential(
              (0): Conv2d(
                512, 128, kernel_size=(1, 1), stride=(1, 1), bias=False
                (norm): SyncBatchNorm(128, eps=1e-05, momentum=0.1, affine=True, track_running_stats=True)
              )
              (1): ReLU(inplace=True)
              (2): Conv2d(128, 288, kernel_size=(1, 1), stride=(1, 1))
              (3): GroupNorm(32, 288, eps=1e-05, affine=True)
            )
            (conv1x1): Sequential(
              (0): Conv2d(256, 256, kernel_size=(1, 1), stride=(1, 1), bias=False)
              (1): SyncBatchNorm(256, eps=1e-05, momentum=0.1, affine=True, track_running_stats=True)
            )
            (local_conv): LocalConvolution()
            (bn): SyncBatchNorm(256, eps=1e-05, momentum=0.1, affine=True, track_running_stats=True)
            (act): SiLU(inplace=True)
            (se): Sequential(
              (0): Conv2d(
                256, 128, kernel_size=(1, 1), stride=(1, 1)
                (norm): SyncBatchNorm(128, eps=1e-05, momentum=0.1, affine=True, track_running_stats=True)
              )
              (1): ReLU(inplace=True)
              (2): Conv2d(128, 512, kernel_size=(1, 1), stride=(1, 1))
            )
          )
          (conv3): Conv2d(
            256, 1024, kernel_size=(1, 1), stride=(1, 1), bias=False
            (norm): SyncBatchNorm(1024, eps=1e-05, momentum=0.1, affine=True, track_running_stats=True)
          )
        )
      )
      (res5): Sequential(
        (0): CoTBlock(
          (shortcut): Sequential(
            (0): AvgPool2d(kernel_size=2, stride=2, padding=0)
            (1): Conv2d(
              1024, 2048, kernel_size=(1, 1), stride=(1, 1), bias=False
              (norm): SyncBatchNorm(2048, eps=1e-05, momentum=0.1, affine=True, track_running_stats=True)
            )
          )
          (conv1): Conv2d(
            1024, 512, kernel_size=(1, 1), stride=(1, 1), bias=False
            (norm): SyncBatchNorm(512, eps=1e-05, momentum=0.1, affine=True, track_running_stats=True)
          )
          (conv2): CoTLayer(
            (key_embed): Sequential(
              (0): Conv2d(
                512, 512, kernel_size=(3, 3), stride=(1, 1), padding=(1, 1), groups=4, bias=False
                (norm): SyncBatchNorm(512, eps=1e-05, momentum=0.1, affine=True, track_running_stats=True)
              )
              (1): ReLU(inplace=True)
            )
            (embed): Sequential(
              (0): Conv2d(
                1024, 256, kernel_size=(1, 1), stride=(1, 1), bias=False
                (norm): SyncBatchNorm(256, eps=1e-05, momentum=0.1, affine=True, track_running_stats=True)
              )
              (1): ReLU(inplace=True)
              (2): Conv2d(256, 576, kernel_size=(1, 1), stride=(1, 1))
              (3): GroupNorm(64, 576, eps=1e-05, affine=True)
            )
            (conv1x1): Sequential(
              (0): Conv2d(512, 512, kernel_size=(1, 1), stride=(1, 1), bias=False)
              (1): SyncBatchNorm(512, eps=1e-05, momentum=0.1, affine=True, track_running_stats=True)
            )
            (local_conv): LocalConvolution()
            (bn): SyncBatchNorm(512, eps=1e-05, momentum=0.1, affine=True, track_running_stats=True)
            (act): SiLU(inplace=True)
            (se): Sequential(
              (0): Conv2d(
                512, 256, kernel_size=(1, 1), stride=(1, 1)
                (norm): SyncBatchNorm(256, eps=1e-05, momentum=0.1, affine=True, track_running_stats=True)
              )
              (1): ReLU(inplace=True)
              (2): Conv2d(256, 1024, kernel_size=(1, 1), stride=(1, 1))
            )
          )
          (avd): AvgPool2d(kernel_size=3, stride=2, padding=1)
          (conv3): Conv2d(
            512, 2048, kernel_size=(1, 1), stride=(1, 1), bias=False
            (norm): SyncBatchNorm(2048, eps=1e-05, momentum=0.1, affine=True, track_running_stats=True)
          )
        )
        (1): CoTBlock(
          (conv1): Conv2d(
            2048, 512, kernel_size=(1, 1), stride=(1, 1), bias=False
            (norm): SyncBatchNorm(512, eps=1e-05, momentum=0.1, affine=True, track_running_stats=True)
          )
          (conv2): CoTLayer(
            (key_embed): Sequential(
              (0): Conv2d(
                512, 512, kernel_size=(3, 3), stride=(1, 1), padding=(1, 1), groups=4, bias=False
                (norm): SyncBatchNorm(512, eps=1e-05, momentum=0.1, affine=True, track_running_stats=True)
              )
              (1): ReLU(inplace=True)
            )
            (embed): Sequential(
              (0): Conv2d(
                1024, 256, kernel_size=(1, 1), stride=(1, 1), bias=False
                (norm): SyncBatchNorm(256, eps=1e-05, momentum=0.1, affine=True, track_running_stats=True)
              )
              (1): ReLU(inplace=True)
              (2): Conv2d(256, 576, kernel_size=(1, 1), stride=(1, 1))
              (3): GroupNorm(64, 576, eps=1e-05, affine=True)
            )
            (conv1x1): Sequential(
              (0): Conv2d(512, 512, kernel_size=(1, 1), stride=(1, 1), bias=False)
              (1): SyncBatchNorm(512, eps=1e-05, momentum=0.1, affine=True, track_running_stats=True)
            )
            (local_conv): LocalConvolution()
            (bn): SyncBatchNorm(512, eps=1e-05, momentum=0.1, affine=True, track_running_stats=True)
            (act): SiLU(inplace=True)
            (se): Sequential(
              (0): Conv2d(
                512, 256, kernel_size=(1, 1), stride=(1, 1)
                (norm): SyncBatchNorm(256, eps=1e-05, momentum=0.1, affine=True, track_running_stats=True)
              )
              (1): ReLU(inplace=True)
              (2): Conv2d(256, 1024, kernel_size=(1, 1), stride=(1, 1))
            )
          )
          (conv3): Conv2d(
            512, 2048, kernel_size=(1, 1), stride=(1, 1), bias=False
            (norm): SyncBatchNorm(2048, eps=1e-05, momentum=0.1, affine=True, track_running_stats=True)
          )
        )
        (2): CoTBlock(
          (conv1): Conv2d(
            2048, 512, kernel_size=(1, 1), stride=(1, 1), bias=False
            (norm): SyncBatchNorm(512, eps=1e-05, momentum=0.1, affine=True, track_running_stats=True)
          )
          (conv2): CoTLayer(
            (key_embed): Sequential(
              (0): Conv2d(
                512, 512, kernel_size=(3, 3), stride=(1, 1), padding=(1, 1), groups=4, bias=False
                (norm): SyncBatchNorm(512, eps=1e-05, momentum=0.1, affine=True, track_running_stats=True)
              )
              (1): ReLU(inplace=True)
            )
            (embed): Sequential(
              (0): Conv2d(
                1024, 256, kernel_size=(1, 1), stride=(1, 1), bias=False
                (norm): SyncBatchNorm(256, eps=1e-05, momentum=0.1, affine=True, track_running_stats=True)
              )
              (1): ReLU(inplace=True)
              (2): Conv2d(256, 576, kernel_size=(1, 1), stride=(1, 1))
              (3): GroupNorm(64, 576, eps=1e-05, affine=True)
            )
            (conv1x1): Sequential(
              (0): Conv2d(512, 512, kernel_size=(1, 1), stride=(1, 1), bias=False)
              (1): SyncBatchNorm(512, eps=1e-05, momentum=0.1, affine=True, track_running_stats=True)
            )
            (local_conv): LocalConvolution()
            (bn): SyncBatchNorm(512, eps=1e-05, momentum=0.1, affine=True, track_running_stats=True)
            (act): SiLU(inplace=True)
            (se): Sequential(
              (0): Conv2d(
                512, 256, kernel_size=(1, 1), stride=(1, 1)
                (norm): SyncBatchNorm(256, eps=1e-05, momentum=0.1, affine=True, track_running_stats=True)
              )
              (1): ReLU(inplace=True)
              (2): Conv2d(256, 1024, kernel_size=(1, 1), stride=(1, 1))
            )
          )
          (conv3): Conv2d(
            512, 2048, kernel_size=(1, 1), stride=(1, 1), bias=False
            (norm): SyncBatchNorm(2048, eps=1e-05, momentum=0.1, affine=True, track_running_stats=True)
          )
        )
      )
    )
  )
  (proposal_generator): RPN(
    (rpn_head): StandardRPNHead(
      (conv): Conv2d(256, 256, kernel_size=(3, 3), stride=(1, 1), padding=(1, 1))
      (objectness_logits): Conv2d(256, 3, kernel_size=(1, 1), stride=(1, 1))
      (anchor_deltas): Conv2d(256, 12, kernel_size=(1, 1), stride=(1, 1))
    )
    (anchor_generator): DefaultAnchorGenerator(
      (cell_anchors): BufferList()
    )
  )
  (roi_heads): CascadeROIHeads(
    (box_pooler): ROIPooler(
      (level_poolers): ModuleList(
        (0): ROIAlign(output_size=(7, 7), spatial_scale=0.25, sampling_ratio=0, aligned=True)
        (1): ROIAlign(output_size=(7, 7), spatial_scale=0.125, sampling_ratio=0, aligned=True)
        (2): ROIAlign(output_size=(7, 7), spatial_scale=0.0625, sampling_ratio=0, aligned=True)
        (3): ROIAlign(output_size=(7, 7), spatial_scale=0.03125, sampling_ratio=0, aligned=True)
      )
    )
    (box_head): ModuleList(
      (0): FastRCNNConvFCHead(
        (conv1): Conv2d(
          256, 256, kernel_size=(3, 3), stride=(1, 1), padding=(1, 1), bias=False
          (norm): SyncBatchNorm(256, eps=1e-05, momentum=0.1, affine=True, track_running_stats=True)
          (activation): ReLU()
        )
        (conv2): Conv2d(
          256, 256, kernel_size=(3, 3), stride=(1, 1), padding=(1, 1), bias=False
          (norm): SyncBatchNorm(256, eps=1e-05, momentum=0.1, affine=True, track_running_stats=True)
          (activation): ReLU()
        )
        (conv3): Conv2d(
          256, 256, kernel_size=(3, 3), stride=(1, 1), padding=(1, 1), bias=False
          (norm): SyncBatchNorm(256, eps=1e-05, momentum=0.1, affine=True, track_running_stats=True)
          (activation): ReLU()
        )
        (conv4): Conv2d(
          256, 256, kernel_size=(3, 3), stride=(1, 1), padding=(1, 1), bias=False
          (norm): SyncBatchNorm(256, eps=1e-05, momentum=0.1, affine=True, track_running_stats=True)
          (activation): ReLU()
        )
        (flatten): Flatten(start_dim=1, end_dim=-1)
        (fc1): Linear(in_features=12544, out_features=1024, bias=True)
        (fc_relu1): ReLU()
      )
      (1): FastRCNNConvFCHead(
        (conv1): Conv2d(
          256, 256, kernel_size=(3, 3), stride=(1, 1), padding=(1, 1), bias=False
          (norm): SyncBatchNorm(256, eps=1e-05, momentum=0.1, affine=True, track_running_stats=True)
          (activation): ReLU()
        )
        (conv2): Conv2d(
          256, 256, kernel_size=(3, 3), stride=(1, 1), padding=(1, 1), bias=False
          (norm): SyncBatchNorm(256, eps=1e-05, momentum=0.1, affine=True, track_running_stats=True)
          (activation): ReLU()
        )
        (conv3): Conv2d(
          256, 256, kernel_size=(3, 3), stride=(1, 1), padding=(1, 1), bias=False
          (norm): SyncBatchNorm(256, eps=1e-05, momentum=0.1, affine=True, track_running_stats=True)
          (activation): ReLU()
        )
        (conv4): Conv2d(
          256, 256, kernel_size=(3, 3), stride=(1, 1), padding=(1, 1), bias=False
          (norm): SyncBatchNorm(256, eps=1e-05, momentum=0.1, affine=True, track_running_stats=True)
          (activation): ReLU()
        )
        (flatten): Flatten(start_dim=1, end_dim=-1)
        (fc1): Linear(in_features=12544, out_features=1024, bias=True)
        (fc_relu1): ReLU()
      )
      (2): FastRCNNConvFCHead(
        (conv1): Conv2d(
          256, 256, kernel_size=(3, 3), stride=(1, 1), padding=(1, 1), bias=False
          (norm): SyncBatchNorm(256, eps=1e-05, momentum=0.1, affine=True, track_running_stats=True)
          (activation): ReLU()
        )
        (conv2): Conv2d(
          256, 256, kernel_size=(3, 3), stride=(1, 1), padding=(1, 1), bias=False
          (norm): SyncBatchNorm(256, eps=1e-05, momentum=0.1, affine=True, track_running_stats=True)
          (activation): ReLU()
        )
        (conv3): Conv2d(
          256, 256, kernel_size=(3, 3), stride=(1, 1), padding=(1, 1), bias=False
          (norm): SyncBatchNorm(256, eps=1e-05, momentum=0.1, affine=True, track_running_stats=True)
          (activation): ReLU()
        )
        (conv4): Conv2d(
          256, 256, kernel_size=(3, 3), stride=(1, 1), padding=(1, 1), bias=False
          (norm): SyncBatchNorm(256, eps=1e-05, momentum=0.1, affine=True, track_running_stats=True)
          (activation): ReLU()
        )
        (flatten): Flatten(start_dim=1, end_dim=-1)
        (fc1): Linear(in_features=12544, out_features=1024, bias=True)
        (fc_relu1): ReLU()
      )
    )
    (box_predictor): ModuleList(
      (0): FastRCNNOutputLayers(
        (cls_score): Linear(in_features=1024, out_features=81, bias=True)
        (bbox_pred): Linear(in_features=1024, out_features=4, bias=True)
      )
      (1): FastRCNNOutputLayers(
        (cls_score): Linear(in_features=1024, out_features=81, bias=True)
        (bbox_pred): Linear(in_features=1024, out_features=4, bias=True)
      )
      (2): FastRCNNOutputLayers(
        (cls_score): Linear(in_features=1024, out_features=81, bias=True)
        (bbox_pred): Linear(in_features=1024, out_features=4, bias=True)
      )
    )
  )
)
[07/31 15:31:47] d2.data.datasets.coco INFO: Loading datasets/coco/annotations/instances_train2017.json takes 20.56 seconds.
[07/31 15:31:49] d2.data.datasets.coco INFO: Loaded 118287 images in COCO format from datasets/coco/annotations/instances_train2017.json
[07/31 15:31:59] d2.data.build INFO: Removed 1021 images with no usable annotations. 117266 images left.
…
