…
  WEIGHT_DECAY_BIAS: 0.0001
  WEIGHT_DECAY_NORM: 0.0
TEST:
  AUG:
    ENABLED: False
    FLIP: True
    MAX_SIZE: 4000
    MIN_SIZES: (400, 500, 600, 700, 800, 900, 1000, 1100, 1200)
  DETECTIONS_PER_IMAGE: 100
  EVAL_PERIOD: 0
  EXPECTED_RESULTS: []
  KEYPOINT_OKS_SIGMAS: []
  PRECISE_BN:
    ENABLED: True
    NUM_ITER: 200
VERSION: 2
VIS_PERIOD: 0
[06/10 06:38:51] detectron2 INFO: Full config saved to ./output/config.yaml
[06/10 06:38:51] d2.utils.env INFO: Using a generated random seed 51944343
[06/10 06:38:53] d2.engine.defaults INFO: Model:
GeneralizedRCNN(
  (backbone): FPN(
    (fpn_lateral2): Conv2d(
      256, 256, kernel_size=(1, 1), stride=(1, 1), bias=False
      (norm): SyncBatchNorm(256, eps=1e-05, momentum=0.1, affine=True, track_running_stats=True)
    )
    (fpn_output2): Conv2d(
      256, 256, kernel_size=(3, 3), stride=(1, 1), padding=(1, 1), bias=False
      (norm): SyncBatchNorm(256, eps=1e-05, momentum=0.1, affine=True, track_running_stats=True)
    )
    (fpn_lateral3): Conv2d(
      512, 256, kernel_size=(1, 1), stride=(1, 1), bias=False
      (norm): SyncBatchNorm(256, eps=1e-05, momentum=0.1, affine=True, track_running_stats=True)
    )
    (fpn_output3): Conv2d(
      256, 256, kernel_size=(3, 3), stride=(1, 1), padding=(1, 1), bias=False
      (norm): SyncBatchNorm(256, eps=1e-05, momentum=0.1, affine=True, track_running_stats=True)
    )
    (fpn_lateral4): Conv2d(
      1024, 256, kernel_size=(1, 1), stride=(1, 1), bias=False
      (norm): SyncBatchNorm(256, eps=1e-05, momentum=0.1, affine=True, track_running_stats=True)
    )
    (fpn_output4): Conv2d(
      256, 256, kernel_size=(3, 3), stride=(1, 1), padding=(1, 1), bias=False
      (norm): SyncBatchNorm(256, eps=1e-05, momentum=0.1, affine=True, track_running_stats=True)
    )
    (fpn_lateral5): Conv2d(
      2048, 256, kernel_size=(1, 1), stride=(1, 1), bias=False
      (norm): SyncBatchNorm(256, eps=1e-05, momentum=0.1, affine=True, track_running_stats=True)
    )
    (fpn_output5): Conv2d(
      256, 256, kernel_size=(3, 3), stride=(1, 1), padding=(1, 1), bias=False
      (norm): SyncBatchNorm(256, eps=1e-05, momentum=0.1, affine=True, track_running_stats=True)
    )
    (top_block): LastLevelMaxPool()
    (bottom_up): CoTNeXt(
      (stem): BasicStem(
        (conv1): Conv2d(
          3, 64, kernel_size=(7, 7), stride=(2, 2), padding=(3, 3), bias=False
          (norm): FrozenBatchNorm2d(num_features=64, eps=1e-05)
        )
      )
      (res2): Sequential(
        (0): CoTXBlock(
          (shortcut): Conv2d(
            64, 256, kernel_size=(1, 1), stride=(1, 1), bias=False
            (norm): FrozenBatchNorm2d(num_features=256, eps=1e-05)
          )
          (conv1): Conv2d(
            64, 96, kernel_size=(1, 1), stride=(1, 1), bias=False
            (norm): FrozenBatchNorm2d(num_features=96, eps=1e-05)
          )
          (conv2): CoTXLayer(
            (key_embed): Sequential(
              (0): Conv2d(
                96, 96, kernel_size=(3, 3), stride=(1, 1), padding=(1, 1), groups=8, bias=False
                (norm): FrozenBatchNorm2d(num_features=96, eps=1e-05)
              )
              (1): ReLU(inplace=True)
            )
            (embed): Sequential(
              (0): Conv2d(
                192, 48, kernel_size=(1, 1), stride=(1, 1), groups=2, bias=False
                (norm): FrozenBatchNorm2d(num_features=48, eps=1e-05)
              )
              (1): ReLU(inplace=True)
              (2): Conv2d(48, 108, kernel_size=(1, 1), stride=(1, 1), groups=2)
              (3): GroupNorm(12, 108, eps=1e-05, affine=True)
            )
            (conv1x1): Sequential(
              (0): Conv2d(96, 96, kernel_size=(1, 1), stride=(1, 1), groups=2, bias=False)
              (1): FrozenBatchNorm2d(num_features=96, eps=1e-05)
            )
            (local_conv): LocalConvolution()
            (bn): FrozenBatchNorm2d(num_features=96, eps=1e-05)
            (act): SiLU(inplace=True)
            (se): Sequential(
              (0): Conv2d(
                96, 48, kernel_size=(1, 1), stride=(1, 1)
                (norm): FrozenBatchNorm2d(num_features=48, eps=1e-05)
              )
              (1): ReLU(inplace=True)
              (2): Conv2d(48, 192, kernel_size=(1, 1), stride=(1, 1))
            )
          )
          (conv3): Conv2d(
            96, 256, kernel_size=(1, 1), stride=(1, 1), bias=False
            (norm): FrozenBatchNorm2d(num_features=256, eps=1e-05)
          )
        )
        (1): CoTXBlock(
          (conv1): Conv2d(
            256, 96, kernel_size=(1, 1), stride=(1, 1), bias=False
            (norm): FrozenBatchNorm2d(num_features=96, eps=1e-05)
          )
          (conv2): CoTXLayer(
            (key_embed): Sequential(
              (0): Conv2d(
                96, 96, kernel_size=(3, 3), stride=(1, 1), padding=(1, 1), groups=8, bias=False
                (norm): FrozenBatchNorm2d(num_features=96, eps=1e-05)
              )
              (1): ReLU(inplace=True)
            )
            (embed): Sequential(
              (0): Conv2d(
                192, 48, kernel_size=(1, 1), stride=(1, 1), groups=2, bias=False
                (norm): FrozenBatchNorm2d(num_features=48, eps=1e-05)
              )
              (1): ReLU(inplace=True)
              (2): Conv2d(48, 108, kernel_size=(1, 1), stride=(1, 1), groups=2)
              (3): GroupNorm(12, 108, eps=1e-05, affine=True)
            )
            (conv1x1): Sequential(
              (0): Conv2d(96, 96, kernel_size=(1, 1), stride=(1, 1), groups=2, bias=False)
              (1): FrozenBatchNorm2d(num_features=96, eps=1e-05)
            )
            (local_conv): LocalConvolution()
            (bn): FrozenBatchNorm2d(num_features=96, eps=1e-05)
            (act): SiLU(inplace=True)
            (se): Sequential(
              (0): Conv2d(
                96, 48, kernel_size=(1, 1), stride=(1, 1)
                (norm): FrozenBatchNorm2d(num_features=48, eps=1e-05)
              )
              (1): ReLU(inplace=True)
              (2): Conv2d(48, 192, kernel_size=(1, 1), stride=(1, 1))
            )
          )
          (conv3): Conv2d(
            96, 256, kernel_size=(1, 1), stride=(1, 1), bias=False
            (norm): FrozenBatchNorm2d(num_features=256, eps=1e-05)
          )
        )
        (2): CoTXBlock(
          (conv1): Conv2d(
            256, 96, kernel_size=(1, 1), stride=(1, 1), bias=False
            (norm): FrozenBatchNorm2d(num_features=96, eps=1e-05)
          )
          (conv2): CoTXLayer(
            (key_embed): Sequential(
              (0): Conv2d(
                96, 96, kernel_size=(3, 3), stride=(1, 1), padding=(1, 1), groups=8, bias=False
                (norm): FrozenBatchNorm2d(num_features=96, eps=1e-05)
              )
              (1): ReLU(inplace=True)
            )
            (embed): Sequential(
              (0): Conv2d(
                192, 48, kernel_size=(1, 1), stride=(1, 1), groups=2, bias=False
                (norm): FrozenBatchNorm2d(num_features=48, eps=1e-05)
              )
              (1): ReLU(inplace=True)
              (2): Conv2d(48, 108, kernel_size=(1, 1), stride=(1, 1), groups=2)
              (3): GroupNorm(12, 108, eps=1e-05, affine=True)
            )
            (conv1x1): Sequential(
              (0): Conv2d(96, 96, kernel_size=(1, 1), stride=(1, 1), groups=2, bias=False)
              (1): FrozenBatchNorm2d(num_features=96, eps=1e-05)
            )
            (local_conv): LocalConvolution()
            (bn): FrozenBatchNorm2d(num_features=96, eps=1e-05)
            (act): SiLU(inplace=True)
            (se): Sequential(
              (0): Conv2d(
                96, 48, kernel_size=(1, 1), stride=(1, 1)
                (norm): FrozenBatchNorm2d(num_features=48, eps=1e-05)
              )
              (1): ReLU(inplace=True)
              (2): Conv2d(48, 192, kernel_size=(1, 1), stride=(1, 1))
            )
          )
          (conv3): Conv2d(
            96, 256, kernel_size=(1, 1), stride=(1, 1), bias=False
            (norm): FrozenBatchNorm2d(num_features=256, eps=1e-05)
          )
        )
      )
      (res3): Sequential(
        (0): CoTXBlock(
          (shortcut): Conv2d(
            256, 512, kernel_size=(1, 1), stride=(2, 2), bias=False
            (norm): SyncBatchNorm(512, eps=1e-05, momentum=0.1, affine=True, track_running_stats=True)
          )
          (conv1): Conv2d(
            256, 192, kernel_size=(1, 1), stride=(1, 1), bias=False
            (norm): SyncBatchNorm(192, eps=1e-05, momentum=0.1, affine=True, track_running_stats=True)
          )
          (avd): AvgPool2d(kernel_size=3, stride=2, padding=1)
          (conv2): CoTXLayer(
            (key_embed): Sequential(
              (0): Conv2d(
                192, 192, kernel_size=(3, 3), stride=(1, 1), padding=(1, 1), groups=8, bias=False
                (norm): SyncBatchNorm(192, eps=1e-05, momentum=0.1, affine=True, track_running_stats=True)
              )
              (1): ReLU(inplace=True)
            )
            (embed): Sequential(
              (0): Conv2d(
                384, 96, kernel_size=(1, 1), stride=(1, 1), groups=2, bias=False
                (norm): SyncBatchNorm(96, eps=1e-05, momentum=0.1, affine=True, track_running_stats=True)
              )
              (1): ReLU(inplace=True)
              (2): Conv2d(96, 216, kernel_size=(1, 1), stride=(1, 1), groups=2)
              (3): GroupNorm(24, 216, eps=1e-05, affine=True)
            )
            (conv1x1): Sequential(
              (0): Conv2d(192, 192, kernel_size=(1, 1), stride=(1, 1), groups=2, bias=False)
              (1): SyncBatchNorm(192, eps=1e-05, momentum=0.1, affine=True, track_running_stats=True)
            )
            (local_conv): LocalConvolution()
            (bn): SyncBatchNorm(192, eps=1e-05, momentum=0.1, affine=True, track_running_stats=True)
            (act): SiLU(inplace=True)
            (se): Sequential(
              (0): Conv2d(
                192, 96, kernel_size=(1, 1), stride=(1, 1)
                (norm): SyncBatchNorm(96, eps=1e-05, momentum=0.1, affine=True, track_running_stats=True)
              )
              (1): ReLU(inplace=True)
              (2): Conv2d(96, 384, kernel_size=(1, 1), stride=(1, 1))
            )
          )
          (conv3): Conv2d(
            192, 512, kernel_size=(1, 1), stride=(1, 1), bias=False
            (norm): SyncBatchNorm(512, eps=1e-05, momentum=0.1, affine=True, track_running_stats=True)
          )
        )
        (1): CoTXBlock(
          (conv1): Conv2d(
            512, 192, kernel_size=(1, 1), stride=(1, 1), bias=False
            (norm): SyncBatchNorm(192, eps=1e-05, momentum=0.1, affine=True, track_running_stats=True)
          )
          (conv2): CoTXLayer(
            (key_embed): Sequential(
              (0): Conv2d(
                192, 192, kernel_size=(3, 3), stride=(1, 1), padding=(1, 1), groups=8, bias=False
                (norm): SyncBatchNorm(192, eps=1e-05, momentum=0.1, affine=True, track_running_stats=True)
              )
              (1): ReLU(inplace=True)
            )
            (embed): Sequential(
              (0): Conv2d(
                384, 96, kernel_size=(1, 1), stride=(1, 1), groups=2, bias=False
                (norm): SyncBatchNorm(96, eps=1e-05, momentum=0.1, affine=True, track_running_stats=True)
              )
              (1): ReLU(inplace=True)
              (2): Conv2d(96, 216, kernel_size=(1, 1), stride=(1, 1), groups=2)
              (3): GroupNorm(24, 216, eps=1e-05, affine=True)
            )
            (conv1x1): Sequential(
              (0): Conv2d(192, 192, kernel_size=(1, 1), stride=(1, 1), groups=2, bias=False)
              (1): SyncBatchNorm(192, eps=1e-05, momentum=0.1, affine=True, track_running_stats=True)
            )
            (local_conv): LocalConvolution()
            (bn): SyncBatchNorm(192, eps=1e-05, momentum=0.1, affine=True, track_running_stats=True)
            (act): SiLU(inplace=True)
            (se): Sequential(
              (0): Conv2d(
                192, 96, kernel_size=(1, 1), stride=(1, 1)
                (norm): SyncBatchNorm(96, eps=1e-05, momentum=0.1, affine=True, track_running_stats=True)
              )
              (1): ReLU(inplace=True)
              (2): Conv2d(96, 384, kernel_size=(1, 1), stride=(1, 1))
            )
          )
          (conv3): Conv2d(
            192, 512, kernel_size=(1, 1), stride=(1, 1), bias=False
            (norm): SyncBatchNorm(512, eps=1e-05, momentum=0.1, affine=True, track_running_stats=True)
          )
        )
        (2): CoTXBlock(
          (conv1): Conv2d(
            512, 192, kernel_size=(1, 1), stride=(1, 1), bias=False
            (norm): SyncBatchNorm(192, eps=1e-05, momentum=0.1, affine=True, track_running_stats=True)
          )
          (conv2): CoTXLayer(
            (key_embed): Sequential(
              (0): Conv2d(
                192, 192, kernel_size=(3, 3), stride=(1, 1), padding=(1, 1), groups=8, bias=False
                (norm): SyncBatchNorm(192, eps=1e-05, momentum=0.1, affine=True, track_running_stats=True)
              )
              (1): ReLU(inplace=True)
            )
            (embed): Sequential(
              (0): Conv2d(
                384, 96, kernel_size=(1, 1), stride=(1, 1), groups=2, bias=False
                (norm): SyncBatchNorm(96, eps=1e-05, momentum=0.1, affine=True, track_running_stats=True)
              )
              (1): ReLU(inplace=True)
              (2): Conv2d(96, 216, kernel_size=(1, 1), stride=(1, 1), groups=2)
              (3): GroupNorm(24, 216, eps=1e-05, affine=True)
            )
            (conv1x1): Sequential(
              (0): Conv2d(192, 192, kernel_size=(1, 1), stride=(1, 1), groups=2, bias=False)
              (1): SyncBatchNorm(192, eps=1e-05, momentum=0.1, affine=True, track_running_stats=True)
            )
            (local_conv): LocalConvolution()
            (bn): SyncBatchNorm(192, eps=1e-05, momentum=0.1, affine=True, track_running_stats=True)
            (act): SiLU(inplace=True)
            (se): Sequential(
              (0): Conv2d(
                192, 96, kernel_size=(1, 1), stride=(1, 1)
                (norm): SyncBatchNorm(96, eps=1e-05, momentum=0.1, affine=True, track_running_stats=True)
              )
              (1): ReLU(inplace=True)
              (2): Conv2d(96, 384, kernel_size=(1, 1), stride=(1, 1))
            )
          )
          (conv3): Conv2d(
            192, 512, kernel_size=(1, 1), stride=(1, 1), bias=False
            (norm): SyncBatchNorm(512, eps=1e-05, momentum=0.1, affine=True, track_running_stats=True)
          )
        )
        (3): CoTXBlock(
          (conv1): Conv2d(
            512, 192, kernel_size=(1, 1), stride=(1, 1), bias=False
            (norm): SyncBatchNorm(192, eps=1e-05, momentum=0.1, affine=True, track_running_stats=True)
          )
          (conv2): CoTXLayer(
            (key_embed): Sequential(
              (0): Conv2d(
                192, 192, kernel_size=(3, 3), stride=(1, 1), padding=(1, 1), groups=8, bias=False
                (norm): SyncBatchNorm(192, eps=1e-05, momentum=0.1, affine=True, track_running_stats=True)
              )
              (1): ReLU(inplace=True)
            )
            (embed): Sequential(
              (0): Conv2d(
                384, 96, kernel_size=(1, 1), stride=(1, 1), groups=2, bias=False
                (norm): SyncBatchNorm(96, eps=1e-05, momentum=0.1, affine=True, track_running_stats=True)
              )
              (1): ReLU(inplace=True)
              (2): Conv2d(96, 216, kernel_size=(1, 1), stride=(1, 1), groups=2)
              (3): GroupNorm(24, 216, eps=1e-05, affine=True)
            )
            (conv1x1): Sequential(
              (0): Conv2d(192, 192, kernel_size=(1, 1), stride=(1, 1), groups=2, bias=False)
              (1): SyncBatchNorm(192, eps=1e-05, momentum=0.1, affine=True, track_running_stats=True)
            )
            (local_conv): LocalConvolution()
            (bn): SyncBatchNorm(192, eps=1e-05, momentum=0.1, affine=True, track_running_stats=True)
            (act): SiLU(inplace=True)
            (se): Sequential(
              (0): Conv2d(
                192, 96, kernel_size=(1, 1), stride=(1, 1)
                (norm): SyncBatchNorm(96, eps=1e-05, momentum=0.1, affine=True, track_running_stats=True)
              )
              (1): ReLU(inplace=True)
              (2): Conv2d(96, 384, kernel_size=(1, 1), stride=(1, 1))
            )
          )
          (conv3): Conv2d(
            192, 512, kernel_size=(1, 1), stride=(1, 1), bias=False
            (norm): SyncBatchNorm(512, eps=1e-05, momentum=0.1, affine=True, track_running_stats=True)
          )
        )
      )
      (res4): Sequential(
        (0): CoTXBlock(
          (shortcut): Conv2d(
            512, 1024, kernel_size=(1, 1), stride=(2, 2), bias=False
            (norm): SyncBatchNorm(1024, eps=1e-05, momentum=0.1, affine=True, track_running_stats=True)
          )
          (conv1): Conv2d(
            512, 384, kernel_size=(1, 1), stride=(1, 1), bias=False
            (norm): SyncBatchNorm(384, eps=1e-05, momentum=0.1, affine=True, track_running_stats=True)
          )
          (avd): AvgPool2d(kernel_size=3, stride=2, padding=1)
          (conv2): CoTXLayer(
            (key_embed): Sequential(
              (0): Conv2d(
                384, 384, kernel_size=(3, 3), stride=(1, 1), padding=(1, 1), groups=8, bias=False
                (norm): SyncBatchNorm(384, eps=1e-05, momentum=0.1, affine=True, track_running_stats=True)
              )
              (1): ReLU(inplace=True)
            )
            (embed): Sequential(
              (0): Conv2d(
                768, 192, kernel_size=(1, 1), stride=(1, 1), groups=2, bias=False
                (norm): SyncBatchNorm(192, eps=1e-05, momentum=0.1, affine=True, track_running_stats=True)
              )
              (1): ReLU(inplace=True)
              (2): Conv2d(192, 432, kernel_size=(1, 1), stride=(1, 1), groups=2)
              (3): GroupNorm(48, 432, eps=1e-05, affine=True)
            )
            (conv1x1): Sequential(
              (0): Conv2d(384, 384, kernel_size=(1, 1), stride=(1, 1), groups=2, bias=False)
              (1): SyncBatchNorm(384, eps=1e-05, momentum=0.1, affine=True, track_running_stats=True)
            )
            (local_conv): LocalConvolution()
            (bn): SyncBatchNorm(384, eps=1e-05, momentum=0.1, affine=True, track_running_stats=True)
            (act): SiLU(inplace=True)
            (se): Sequential(
              (0): Conv2d(
                384, 192, kernel_size=(1, 1), stride=(1, 1)
                (norm): SyncBatchNorm(192, eps=1e-05, momentum=0.1, affine=True, track_running_stats=True)
              )
              (1): ReLU(inplace=True)
              (2): Conv2d(192, 768, kernel_size=(1, 1), stride=(1, 1))
            )
          )
          (conv3): Conv2d(
            384, 1024, kernel_size=(1, 1), stride=(1, 1), bias=False
            (norm): SyncBatchNorm(1024, eps=1e-05, momentum=0.1, affine=True, track_running_stats=True)
          )
        )
        (1): CoTXBlock(
          (conv1): Conv2d(
            1024, 384, kernel_size=(1, 1), stride=(1, 1), bias=False
            (norm): SyncBatchNorm(384, eps=1e-05, momentum=0.1, affine=True, track_running_stats=True)
          )
          (conv2): CoTXLayer(
            (key_embed): Sequential(
              (0): Conv2d(
                384, 384, kernel_size=(3, 3), stride=(1, 1), padding=(1, 1), groups=8, bias=False
                (norm): SyncBatchNorm(384, eps=1e-05, momentum=0.1, affine=True, track_running_stats=True)
              )
              (1): ReLU(inplace=True)
            )
            (embed): Sequential(
              (0): Conv2d(
                768, 192, kernel_size=(1, 1), stride=(1, 1), groups=2, bias=False
                (norm): SyncBatchNorm(192, eps=1e-05, momentum=0.1, affine=True, track_running_stats=True)
              )
              (1): ReLU(inplace=True)
              (2): Conv2d(192, 432, kernel_size=(1, 1), stride=(1, 1), groups=2)
              (3): GroupNorm(48, 432, eps=1e-05, affine=True)
            )
            (conv1x1): Sequential(
              (0): Conv2d(384, 384, kernel_size=(1, 1), stride=(1, 1), groups=2, bias=False)
              (1): SyncBatchNorm(384, eps=1e-05, momentum=0.1, affine=True, track_running_stats=True)
            )
            (local_conv): LocalConvolution()
            (bn): SyncBatchNorm(384, eps=1e-05, momentum=0.1, affine=True, track_running_stats=True)
            (act): SiLU(inplace=True)
            (se): Sequential(
              (0): Conv2d(
                384, 192, kernel_size=(1, 1), stride=(1, 1)
                (norm): SyncBatchNorm(192, eps=1e-05, momentum=0.1, affine=True, track_running_stats=True)
              )
              (1): ReLU(inplace=True)
              (2): Conv2d(192, 768, kernel_size=(1, 1), stride=(1, 1))
            )
          )
          (conv3): Conv2d(
            384, 1024, kernel_size=(1, 1), stride=(1, 1), bias=False
            (norm): SyncBatchNorm(1024, eps=1e-05, momentum=0.1, affine=True, track_running_stats=True)
          )
        )
        (2): CoTXBlock(
          (conv1): Conv2d(
            1024, 384, kernel_size=(1, 1), stride=(1, 1), bias=False
            (norm): SyncBatchNorm(384, eps=1e-05, momentum=0.1, affine=True, track_running_stats=True)
          )
          (conv2): CoTXLayer(
            (key_embed): Sequential(
              (0): Conv2d(
                384, 384, kernel_size=(3, 3), stride=(1, 1), padding=(1, 1), groups=8, bias=False
                (norm): SyncBatchNorm(384, eps=1e-05, momentum=0.1, affine=True, track_running_stats=True)
              )
              (1): ReLU(inplace=True)
            )
            (embed): Sequential(
              (0): Conv2d(
                768, 192, kernel_size=(1, 1), stride=(1, 1), groups=2, bias=False
                (norm): SyncBatchNorm(192, eps=1e-05, momentum=0.1, affine=True, track_running_stats=True)
              )
              (1): ReLU(inplace=True)
              (2): Conv2d(192, 432, kernel_size=(1, 1), stride=(1, 1), groups=2)
              (3): GroupNorm(48, 432, eps=1e-05, affine=True)
            )
            (conv1x1): Sequential(
              (0): Conv2d(384, 384, kernel_size=(1, 1), stride=(1, 1), groups=2, bias=False)
              (1): SyncBatchNorm(384, eps=1e-05, momentum=0.1, affine=True, track_running_stats=True)
            )
            (local_conv): LocalConvolution()
            (bn): SyncBatchNorm(384, eps=1e-05, momentum=0.1, affine=True, track_running_stats=True)
            (act): SiLU(inplace=True)
            (se): Sequential(
              (0): Conv2d(
                384, 192, kernel_size=(1, 1), stride=(1, 1)
                (norm): SyncBatchNorm(192, eps=1e-05, momentum=0.1, affine=True, track_running_stats=True)
              )
              (1): ReLU(inplace=True)
              (2): Conv2d(192, 768, kernel_size=(1, 1), stride=(1, 1))
            )
          )
          (conv3): Conv2d(
            384, 1024, kernel_size=(1, 1), stride=(1, 1), bias=False
            (norm): SyncBatchNorm(1024, eps=1e-05, momentum=0.1, affine=True, track_running_stats=True)
          )
        )
        (3): CoTXBlock(
          (conv1): Conv2d(
            1024, 384, kernel_size=(1, 1), stride=(1, 1), bias=False
            (norm): SyncBatchNorm(384, eps=1e-05, momentum=0.1, affine=True, track_running_stats=True)
          )
          (conv2): CoTXLayer(
            (key_embed): Sequential(
              (0): Conv2d(
                384, 384, kernel_size=(3, 3), stride=(1, 1), padding=(1, 1), groups=8, bias=False
                (norm): SyncBatchNorm(384, eps=1e-05, momentum=0.1, affine=True, track_running_stats=True)
              )
              (1): ReLU(inplace=True)
            )
            (embed): Sequential(
              (0): Conv2d(
                768, 192, kernel_size=(1, 1), stride=(1, 1), groups=2, bias=False
                (norm): SyncBatchNorm(192, eps=1e-05, momentum=0.1, affine=True, track_running_stats=True)
              )
              (1): ReLU(inplace=True)
              (2): Conv2d(192, 432, kernel_size=(1, 1), stride=(1, 1), groups=2)
              (3): GroupNorm(48, 432, eps=1e-05, affine=True)
            )
            (conv1x1): Sequential(
              (0): Conv2d(384, 384, kernel_size=(1, 1), stride=(1, 1), groups=2, bias=False)
              (1): SyncBatchNorm(384, eps=1e-05, momentum=0.1, affine=True, track_running_stats=True)
            )
            (local_conv): LocalConvolution()
            (bn): SyncBatchNorm(384, eps=1e-05, momentum=0.1, affine=True, track_running_stats=True)
            (act): SiLU(inplace=True)
            (se): Sequential(
              (0): Conv2d(
                384, 192, kernel_size=(1, 1), stride=(1, 1)
                (norm): SyncBatchNorm(192, eps=1e-05, momentum=0.1, affine=True, track_running_stats=True)
              )
              (1): ReLU(inplace=True)
              (2): Conv2d(192, 768, kernel_size=(1, 1), stride=(1, 1))
            )
          )
          (conv3): Conv2d(
            384, 1024, kernel_size=(1, 1), stride=(1, 1), bias=False
            (norm): SyncBatchNorm(1024, eps=1e-05, momentum=0.1, affine=True, track_running_stats=True)
          )
        )
        (4): CoTXBlock(
          (conv1): Conv2d(
            1024, 384, kernel_size=(1, 1), stride=(1, 1), bias=False
            (norm): SyncBatchNorm(384, eps=1e-05, momentum=0.1, affine=True, track_running_stats=True)
          )
          (conv2): CoTXLayer(
            (key_embed): Sequential(
              (0): Conv2d(
                384, 384, kernel_size=(3, 3), stride=(1, 1), padding=(1, 1), groups=8, bias=False
                (norm): SyncBatchNorm(384, eps=1e-05, momentum=0.1, affine=True, track_running_stats=True)
              )
              (1): ReLU(inplace=True)
            )
            (embed): Sequential(
              (0): Conv2d(
                768, 192, kernel_size=(1, 1), stride=(1, 1), groups=2, bias=False
                (norm): SyncBatchNorm(192, eps=1e-05, momentum=0.1, affine=True, track_running_stats=True)
              )
              (1): ReLU(inplace=True)
              (2): Conv2d(192, 432, kernel_size=(1, 1), stride=(1, 1), groups=2)
              (3): GroupNorm(48, 432, eps=1e-05, affine=True)
            )
            (conv1x1): Sequential(
              (0): Conv2d(384, 384, kernel_size=(1, 1), stride=(1, 1), groups=2, bias=False)
              (1): SyncBatchNorm(384, eps=1e-05, momentum=0.1, affine=True, track_running_stats=True)
            )
            (local_conv): LocalConvolution()
            (bn): SyncBatchNorm(384, eps=1e-05, momentum=0.1, affine=True, track_running_stats=True)
            (act): SiLU(inplace=True)
            (se): Sequential(
              (0): Conv2d(
                384, 192, kernel_size=(1, 1), stride=(1, 1)
                (norm): SyncBatchNorm(192, eps=1e-05, momentum=0.1, affine=True, track_running_stats=True)
              )
              (1): ReLU(inplace=True)
              (2): Conv2d(192, 768, kernel_size=(1, 1), stride=(1, 1))
            )
          )
          (conv3): Conv2d(
            384, 1024, kernel_size=(1, 1), stride=(1, 1), bias=False
            (norm): SyncBatchNorm(1024, eps=1e-05, momentum=0.1, affine=True, track_running_stats=True)
          )
        )
        (5): CoTXBlock(
          (conv1): Conv2d(
            1024, 384, kernel_size=(1, 1), stride=(1, 1), bias=False
            (norm): SyncBatchNorm(384, eps=1e-05, momentum=0.1, affine=True, track_running_stats=True)
          )
          (conv2): CoTXLayer(
            (key_embed): Sequential(
              (0): Conv2d(
                384, 384, kernel_size=(3, 3), stride=(1, 1), padding=(1, 1), groups=8, bias=False
                (norm): SyncBatchNorm(384, eps=1e-05, momentum=0.1, affine=True, track_running_stats=True)
              )
              (1): ReLU(inplace=True)
            )
            (embed): Sequential(
              (0): Conv2d(
                768, 192, kernel_size=(1, 1), stride=(1, 1), groups=2, bias=False
                (norm): SyncBatchNorm(192, eps=1e-05, momentum=0.1, affine=True, track_running_stats=True)
              )
              (1): ReLU(inplace=True)
              (2): Conv2d(192, 432, kernel_size=(1, 1), stride=(1, 1), groups=2)
              (3): GroupNorm(48, 432, eps=1e-05, affine=True)
            )
            (conv1x1): Sequential(
              (0): Conv2d(384, 384, kernel_size=(1, 1), stride=(1, 1), groups=2, bias=False)
              (1): SyncBatchNorm(384, eps=1e-05, momentum=0.1, affine=True, track_running_stats=True)
            )
            (local_conv): LocalConvolution()
            (bn): SyncBatchNorm(384, eps=1e-05, momentum=0.1, affine=True, track_running_stats=True)
            (act): SiLU(inplace=True)
            (se): Sequential(
              (0): Conv2d(
                384, 192, kernel_size=(1, 1), stride=(1, 1)
                (norm): SyncBatchNorm(192, eps=1e-05, momentum=0.1, affine=True, track_running_stats=True)
              )
              (1): ReLU(inplace=True)
              (2): Conv2d(192, 768, kernel_size=(1, 1), stride=(1, 1))
            )
          )
          (conv3): Conv2d(
            384, 1024, kernel_size=(1, 1), stride=(1, 1), bias=False
            (norm): SyncBatchNorm(1024, eps=1e-05, momentum=0.1, affine=True, track_running_stats=True)
          )
        )
        (6): CoTXBlock(
          (conv1): Conv2d(
            1024, 384, kernel_size=(1, 1), stride=(1, 1), bias=False
            (norm): SyncBatchNorm(384, eps=1e-05, momentum=0.1, affine=True, track_running_stats=True)
          )
          (conv2): CoTXLayer(
            (key_embed): Sequential(
              (0): Conv2d(
                384, 384, kernel_size=(3, 3), stride=(1, 1), padding=(1, 1), groups=8, bias=False
                (norm): SyncBatchNorm(384, eps=1e-05, momentum=0.1, affine=True, track_running_stats=True)
              )
              (1): ReLU(inplace=True)
            )
            (embed): Sequential(
              (0): Conv2d(
                768, 192, kernel_size=(1, 1), stride=(1, 1), groups=2, bias=False
                (norm): SyncBatchNorm(192, eps=1e-05, momentum=0.1, affine=True, track_running_stats=True)
              )
              (1): ReLU(inplace=True)
              (2): Conv2d(192, 432, kernel_size=(1, 1), stride=(1, 1), groups=2)
              (3): GroupNorm(48, 432, eps=1e-05, affine=True)
            )
            (conv1x1): Sequential(
              (0): Conv2d(384, 384, kernel_size=(1, 1), stride=(1, 1), groups=2, bias=False)
              (1): SyncBatchNorm(384, eps=1e-05, momentum=0.1, affine=True, track_running_stats=True)
            )
            (local_conv): LocalConvolution()
            (bn): SyncBatchNorm(384, eps=1e-05, momentum=0.1, affine=True, track_running_stats=True)
            (act): SiLU(inplace=True)
            (se): Sequential(
              (0): Conv2d(
                384, 192, kernel_size=(1, 1), stride=(1, 1)
                (norm): SyncBatchNorm(192, eps=1e-05, momentum=0.1, affine=True, track_running_stats=True)
              )
              (1): ReLU(inplace=True)
              (2): Conv2d(192, 768, kernel_size=(1, 1), stride=(1, 1))
            )
          )
          (conv3): Conv2d(
            384, 1024, kernel_size=(1, 1), stride=(1, 1), bias=False
            (norm): SyncBatchNorm(1024, eps=1e-05, momentum=0.1, affine=True, track_running_stats=True)
          )
        )
        (7): CoTXBlock(
          (conv1): Conv2d(
            1024, 384, kernel_size=(1, 1), stride=(1, 1), bias=False
            (norm): SyncBatchNorm(384, eps=1e-05, momentum=0.1, affine=True, track_running_stats=True)
          )
          (conv2): CoTXLayer(
            (key_embed): Sequential(
              (0): Conv2d(
                384, 384, kernel_size=(3, 3), stride=(1, 1), padding=(1, 1), groups=8, bias=False
                (norm): SyncBatchNorm(384, eps=1e-05, momentum=0.1, affine=True, track_running_stats=True)
              )
              (1): ReLU(inplace=True)
            )
            (embed): Sequential(
              (0): Conv2d(
                768, 192, kernel_size=(1, 1), stride=(1, 1), groups=2, bias=False
                (norm): SyncBatchNorm(192, eps=1e-05, momentum=0.1, affine=True, track_running_stats=True)
              )
              (1): ReLU(inplace=True)
              (2): Conv2d(192, 432, kernel_size=(1, 1), stride=(1, 1), groups=2)
              (3): GroupNorm(48, 432, eps=1e-05, affine=True)
            )
            (conv1x1): Sequential(
              (0): Conv2d(384, 384, kernel_size=(1, 1), stride=(1, 1), groups=2, bias=False)
              (1): SyncBatchNorm(384, eps=1e-05, momentum=0.1, affine=True, track_running_stats=True)
            )
            (local_conv): LocalConvolution()
            (bn): SyncBatchNorm(384, eps=1e-05, momentum=0.1, affine=True, track_running_stats=True)
            (act): SiLU(inplace=True)
            (se): Sequential(
              (0): Conv2d(
                384, 192, kernel_size=(1, 1), stride=(1, 1)
                (norm): SyncBatchNorm(192, eps=1e-05, momentum=0.1, affine=True, track_running_stats=True)
              )
              (1): ReLU(inplace=True)
              (2): Conv2d(192, 768, kernel_size=(1, 1), stride=(1, 1))
            )
          )
          (conv3): Conv2d(
            384, 1024, kernel_size=(1, 1), stride=(1, 1), bias=False
            (norm): SyncBatchNorm(1024, eps=1e-05, momentum=0.1, affine=True, track_running_stats=True)
          )
        )
        (8): CoTXBlock(
          (conv1): Conv2d(
            1024, 384, kernel_size=(1, 1), stride=(1, 1), bias=False
            (norm): SyncBatchNorm(384, eps=1e-05, momentum=0.1, affine=True, track_running_stats=True)
          )
          (conv2): CoTXLayer(
            (key_embed): Sequential(
              (0): Conv2d(
                384, 384, kernel_size=(3, 3), stride=(1, 1), padding=(1, 1), groups=8, bias=False
                (norm): SyncBatchNorm(384, eps=1e-05, momentum=0.1, affine=True, track_running_stats=True)
              )
              (1): ReLU(inplace=True)
            )
            (embed): Sequential(
              (0): Conv2d(
                768, 192, kernel_size=(1, 1), stride=(1, 1), groups=2, bias=False
                (norm): SyncBatchNorm(192, eps=1e-05, momentum=0.1, affine=True, track_running_stats=True)
              )
              (1): ReLU(inplace=True)
              (2): Conv2d(192, 432, kernel_size=(1, 1), stride=(1, 1), groups=2)
              (3): GroupNorm(48, 432, eps=1e-05, affine=True)
            )
            (conv1x1): Sequential(
              (0): Conv2d(384, 384, kernel_size=(1, 1), stride=(1, 1), groups=2, bias=False)
              (1): SyncBatchNorm(384, eps=1e-05, momentum=0.1, affine=True, track_running_stats=True)
            )
            (local_conv): LocalConvolution()
            (bn): SyncBatchNorm(384, eps=1e-05, momentum=0.1, affine=True, track_running_stats=True)
            (act): SiLU(inplace=True)
            (se): Sequential(
              (0): Conv2d(
                384, 192, kernel_size=(1, 1), stride=(1, 1)
                (norm): SyncBatchNorm(192, eps=1e-05, momentum=0.1, affine=True, track_running_stats=True)
              )
              (1): ReLU(inplace=True)
              (2): Conv2d(192, 768, kernel_size=(1, 1), stride=(1, 1))
            )
          )
          (conv3): Conv2d(
            384, 1024, kernel_size=(1, 1), stride=(1, 1), bias=False
            (norm): SyncBatchNorm(1024, eps=1e-05, momentum=0.1, affine=True, track_running_stats=True)
          )
        )
        (9): CoTXBlock(
          (conv1): Conv2d(
            1024, 384, kernel_size=(1, 1), stride=(1, 1), bias=False
            (norm): SyncBatchNorm(384, eps=1e-05, momentum=0.1, affine=True, track_running_stats=True)
          )
          (conv2): CoTXLayer(
            (key_embed): Sequential(
              (0): Conv2d(
                384, 384, kernel_size=(3, 3), stride=(1, 1), padding=(1, 1), groups=8, bias=False
                (norm): SyncBatchNorm(384, eps=1e-05, momentum=0.1, affine=True, track_running_stats=True)
              )
              (1): ReLU(inplace=True)
            )
            (embed): Sequential(
              (0): Conv2d(
                768, 192, kernel_size=(1, 1), stride=(1, 1), groups=2, bias=False
                (norm): SyncBatchNorm(192, eps=1e-05, momentum=0.1, affine=True, track_running_stats=True)
              )
              (1): ReLU(inplace=True)
              (2): Conv2d(192, 432, kernel_size=(1, 1), stride=(1, 1), groups=2)
              (3): GroupNorm(48, 432, eps=1e-05, affine=True)
            )
            (conv1x1): Sequential(
              (0): Conv2d(384, 384, kernel_size=(1, 1), stride=(1, 1), groups=2, bias=False)
              (1): SyncBatchNorm(384, eps=1e-05, momentum=0.1, affine=True, track_running_stats=True)
            )
            (local_conv): LocalConvolution()
            (bn): SyncBatchNorm(384, eps=1e-05, momentum=0.1, affine=True, track_running_stats=True)
            (act): SiLU(inplace=True)
            (se): Sequential(
              (0): Conv2d(
                384, 192, kernel_size=(1, 1), stride=(1, 1)
                (norm): SyncBatchNorm(192, eps=1e-05, momentum=0.1, affine=True, track_running_stats=True)
              )
              (1): ReLU(inplace=True)
              (2): Conv2d(192, 768, kernel_size=(1, 1), stride=(1, 1))
            )
          )
          (conv3): Conv2d(
            384, 1024, kernel_size=(1, 1), stride=(1, 1), bias=False
            (norm): SyncBatchNorm(1024, eps=1e-05, momentum=0.1, affine=True, track_running_stats=True)
          )
        )
        (10): CoTXBlock(
          (conv1): Conv2d(
            1024, 384, kernel_size=(1, 1), stride=(1, 1), bias=False
            (norm): SyncBatchNorm(384, eps=1e-05, momentum=0.1, affine=True, track_running_stats=True)
          )
          (conv2): CoTXLayer(
            (key_embed): Sequential(
              (0): Conv2d(
                384, 384, kernel_size=(3, 3), stride=(1, 1), padding=(1, 1), groups=8, bias=False
                (norm): SyncBatchNorm(384, eps=1e-05, momentum=0.1, affine=True, track_running_stats=True)
              )
              (1): ReLU(inplace=True)
            )
            (embed): Sequential(
              (0): Conv2d(
                768, 192, kernel_size=(1, 1), stride=(1, 1), groups=2, bias=False
                (norm): SyncBatchNorm(192, eps=1e-05, momentum=0.1, affine=True, track_running_stats=True)
              )
              (1): ReLU(inplace=True)
              (2): Conv2d(192, 432, kernel_size=(1, 1), stride=(1, 1), groups=2)
              (3): GroupNorm(48, 432, eps=1e-05, affine=True)
            )
            (conv1x1): Sequential(
              (0): Conv2d(384, 384, kernel_size=(1, 1), stride=(1, 1), groups=2, bias=False)
              (1): SyncBatchNorm(384, eps=1e-05, momentum=0.1, affine=True, track_running_stats=True)
            )
            (local_conv): LocalConvolution()
            (bn): SyncBatchNorm(384, eps=1e-05, momentum=0.1, affine=True, track_running_stats=True)
            (act): SiLU(inplace=True)
            (se): Sequential(
              (0): Conv2d(
                384, 192, kernel_size=(1, 1), stride=(1, 1)
                (norm): SyncBatchNorm(192, eps=1e-05, momentum=0.1, affine=True, track_running_stats=True)
              )
              (1): ReLU(inplace=True)
              (2): Conv2d(192, 768, kernel_size=(1, 1), stride=(1, 1))
            )
          )
          (conv3): Conv2d(
            384, 1024, kernel_size=(1, 1), stride=(1, 1), bias=False
            (norm): SyncBatchNorm(1024, eps=1e-05, momentum=0.1, affine=True, track_running_stats=True)
          )
        )
        (11): CoTXBlock(
          (conv1): Conv2d(
            1024, 384, kernel_size=(1, 1), stride=(1, 1), bias=False
            (norm): SyncBatchNorm(384, eps=1e-05, momentum=0.1, affine=True, track_running_stats=True)
          )
          (conv2): CoTXLayer(
            (key_embed): Sequential(
              (0): Conv2d(
                384, 384, kernel_size=(3, 3), stride=(1, 1), padding=(1, 1), groups=8, bias=False
                (norm): SyncBatchNorm(384, eps=1e-05, momentum=0.1, affine=True, track_running_stats=True)
              )
              (1): ReLU(inplace=True)
            )
            (embed): Sequential(
              (0): Conv2d(
                768, 192, kernel_size=(1, 1), stride=(1, 1), groups=2, bias=False
                (norm): SyncBatchNorm(192, eps=1e-05, momentum=0.1, affine=True, track_running_stats=True)
              )
              (1): ReLU(inplace=True)
              (2): Conv2d(192, 432, kernel_size=(1, 1), stride=(1, 1), groups=2)
              (3): GroupNorm(48, 432, eps=1e-05, affine=True)
            )
            (conv1x1): Sequential(
              (0): Conv2d(384, 384, kernel_size=(1, 1), stride=(1, 1), groups=2, bias=False)
              (1): SyncBatchNorm(384, eps=1e-05, momentum=0.1, affine=True, track_running_stats=True)
            )
            (local_conv): LocalConvolution()
            (bn): SyncBatchNorm(384, eps=1e-05, momentum=0.1, affine=True, track_running_stats=True)
            (act): SiLU(inplace=True)
            (se): Sequential(
              (0): Conv2d(
                384, 192, kernel_size=(1, 1), stride=(1, 1)
                (norm): SyncBatchNorm(192, eps=1e-05, momentum=0.1, affine=True, track_running_stats=True)
              )
              (1): ReLU(inplace=True)
              (2): Conv2d(192, 768, kernel_size=(1, 1), stride=(1, 1))
            )
          )
          (conv3): Conv2d(
            384, 1024, kernel_size=(1, 1), stride=(1, 1), bias=False
            (norm): SyncBatchNorm(1024, eps=1e-05, momentum=0.1, affine=True, track_running_stats=True)
          )
        )
        (12): CoTXBlock(
          (conv1): Conv2d(
            1024, 384, kernel_size=(1, 1), stride=(1, 1), bias=False
            (norm): SyncBatchNorm(384, eps=1e-05, momentum=0.1, affine=True, track_running_stats=True)
          )
          (conv2): CoTXLayer(
            (key_embed): Sequential(
              (0): Conv2d(
                384, 384, kernel_size=(3, 3), stride=(1, 1), padding=(1, 1), groups=8, bias=False
                (norm): SyncBatchNorm(384, eps=1e-05, momentum=0.1, affine=True, track_running_stats=True)
              )
              (1): ReLU(inplace=True)
            )
            (embed): Sequential(
              (0): Conv2d(
                768, 192, kernel_size=(1, 1), stride=(1, 1), groups=2, bias=False
                (norm): SyncBatchNorm(192, eps=1e-05, momentum=0.1, affine=True, track_running_stats=True)
              )
              (1): ReLU(inplace=True)
              (2): Conv2d(192, 432, kernel_size=(1, 1), stride=(1, 1), groups=2)
              (3): GroupNorm(48, 432, eps=1e-05, affine=True)
            )
            (conv1x1): Sequential(
              (0): Conv2d(384, 384, kernel_size=(1, 1), stride=(1, 1), groups=2, bias=False)
              (1): SyncBatchNorm(384, eps=1e-05, momentum=0.1, affine=True, track_running_stats=True)
            )
            (local_conv): LocalConvolution()
            (bn): SyncBatchNorm(384, eps=1e-05, momentum=0.1, affine=True, track_running_stats=True)
            (act): SiLU(inplace=True)
            (se): Sequential(
              (0): Conv2d(
                384, 192, kernel_size=(1, 1), stride=(1, 1)
                (norm): SyncBatchNorm(192, eps=1e-05, momentum=0.1, affine=True, track_running_stats=True)
              )
              (1): ReLU(inplace=True)
              (2): Conv2d(192, 768, kernel_size=(1, 1), stride=(1, 1))
            )
          )
          (conv3): Conv2d(
            384, 1024, kernel_size=(1, 1), stride=(1, 1), bias=False
            (norm): SyncBatchNorm(1024, eps=1e-05, momentum=0.1, affine=True, track_running_stats=True)
          )
        )
        (13): CoTXBlock(
          (conv1): Conv2d(
            1024, 384, kernel_size=(1, 1), stride=(1, 1), bias=False
            (norm): SyncBatchNorm(384, eps=1e-05, momentum=0.1, affine=True, track_running_stats=True)
          )
          (conv2): CoTXLayer(
            (key_embed): Sequential(
              (0): Conv2d(
                384, 384, kernel_size=(3, 3), stride=(1, 1), padding=(1, 1), groups=8, bias=False
                (norm): SyncBatchNorm(384, eps=1e-05, momentum=0.1, affine=True, track_running_stats=True)
              )
              (1): ReLU(inplace=True)
            )
            (embed): Sequential(
              (0): Conv2d(
                768, 192, kernel_size=(1, 1), stride=(1, 1), groups=2, bias=False
                (norm): SyncBatchNorm(192, eps=1e-05, momentum=0.1, affine=True, track_running_stats=True)
              )
              (1): ReLU(inplace=True)
              (2): Conv2d(192, 432, kernel_size=(1, 1), stride=(1, 1), groups=2)
              (3): GroupNorm(48, 432, eps=1e-05, affine=True)
            )
            (conv1x1): Sequential(
              (0): Conv2d(384, 384, kernel_size=(1, 1), stride=(1, 1), groups=2, bias=False)
              (1): SyncBatchNorm(384, eps=1e-05, momentum=0.1, affine=True, track_running_stats=True)
            )
            (local_conv): LocalConvolution()
            (bn): SyncBatchNorm(384, eps=1e-05, momentum=0.1, affine=True, track_running_stats=True)
            (act): SiLU(inplace=True)
            (se): Sequential(
              (0): Conv2d(
                384, 192, kernel_size=(1, 1), stride=(1, 1)
                (norm): SyncBatchNorm(192, eps=1e-05, momentum=0.1, affine=True, track_running_stats=True)
              )
              (1): ReLU(inplace=True)
              (2): Conv2d(192, 768, kernel_size=(1, 1), stride=(1, 1))
            )
          )
          (conv3): Conv2d(
            384, 1024, kernel_size=(1, 1), stride=(1, 1), bias=False
            (norm): SyncBatchNorm(1024, eps=1e-05, momentum=0.1, affine=True, track_running_stats=True)
          )
        )
        (14): CoTXBlock(
          (conv1): Conv2d(
            1024, 384, kernel_size=(1, 1), stride=(1, 1), bias=False
            (norm): SyncBatchNorm(384, eps=1e-05, momentum=0.1, affine=True, track_running_stats=True)
          )
          (conv2): CoTXLayer(
            (key_embed): Sequential(
              (0): Conv2d(
                384, 384, kernel_size=(3, 3), stride=(1, 1), padding=(1, 1), groups=8, bias=False
                (norm): SyncBatchNorm(384, eps=1e-05, momentum=0.1, affine=True, track_running_stats=True)
              )
              (1): ReLU(inplace=True)
            )
            (embed): Sequential(
              (0): Conv2d(
                768, 192, kernel_size=(1, 1), stride=(1, 1), groups=2, bias=False
                (norm): SyncBatchNorm(192, eps=1e-05, momentum=0.1, affine=True, track_running_stats=True)
              )
              (1): ReLU(inplace=True)
              (2): Conv2d(192, 432, kernel_size=(1, 1), stride=(1, 1), groups=2)
              (3): GroupNorm(48, 432, eps=1e-05, affine=True)
            )
            (conv1x1): Sequential(
              (0): Conv2d(384, 384, kernel_size=(1, 1), stride=(1, 1), groups=2, bias=False)
              (1): SyncBatchNorm(384, eps=1e-05, momentum=0.1, affine=True, track_running_stats=True)
            )
            (local_conv): LocalConvolution()
            (bn): SyncBatchNorm(384, eps=1e-05, momentum=0.1, affine=True, track_running_stats=True)
            (act): SiLU(inplace=True)
            (se): Sequential(
              (0): Conv2d(
                384, 192, kernel_size=(1, 1), stride=(1, 1)
                (norm): SyncBatchNorm(192, eps=1e-05, momentum=0.1, affine=True, track_running_stats=True)
              )
              (1): ReLU(inplace=True)
              (2): Conv2d(192, 768, kernel_size=(1, 1), stride=(1, 1))
            )
          )
          (conv3): Conv2d(
            384, 1024, kernel_size=(1, 1), stride=(1, 1), bias=False
            (norm): SyncBatchNorm(1024, eps=1e-05, momentum=0.1, affine=True, track_running_stats=True)
          )
        )
        (15): CoTXBlock(
          (conv1): Conv2d(
            1024, 384, kernel_size=(1, 1), stride=(1, 1), bias=False
            (norm): SyncBatchNorm(384, eps=1e-05, momentum=0.1, affine=True, track_running_stats=True)
          )
          (conv2): CoTXLayer(
            (key_embed): Sequential(
              (0): Conv2d(
                384, 384, kernel_size=(3, 3), stride=(1, 1), padding=(1, 1), groups=8, bias=False
                (norm): SyncBatchNorm(384, eps=1e-05, momentum=0.1, affine=True, track_running_stats=True)
              )
              (1): ReLU(inplace=True)
            )
            (embed): Sequential(
              (0): Conv2d(
                768, 192, kernel_size=(1, 1), stride=(1, 1), groups=2, bias=False
                (norm): SyncBatchNorm(192, eps=1e-05, momentum=0.1, affine=True, track_running_stats=True)
              )
              (1): ReLU(inplace=True)
              (2): Conv2d(192, 432, kernel_size=(1, 1), stride=(1, 1), groups=2)
              (3): GroupNorm(48, 432, eps=1e-05, affine=True)
            )
            (conv1x1): Sequential(
              (0): Conv2d(384, 384, kernel_size=(1, 1), stride=(1, 1), groups=2, bias=False)
              (1): SyncBatchNorm(384, eps=1e-05, momentum=0.1, affine=True, track_running_stats=True)
            )
            (local_conv): LocalConvolution()
            (bn): SyncBatchNorm(384, eps=1e-05, momentum=0.1, affine=True, track_running_stats=True)
            (act): SiLU(inplace=True)
            (se): Sequential(
              (0): Conv2d(
                384, 192, kernel_size=(1, 1), stride=(1, 1)
                (norm): SyncBatchNorm(192, eps=1e-05, momentum=0.1, affine=True, track_running_stats=True)
              )
              (1): ReLU(inplace=True)
              (2): Conv2d(192, 768, kernel_size=(1, 1), stride=(1, 1))
            )
          )
          (conv3): Conv2d(
            384, 1024, kernel_size=(1, 1), stride=(1, 1), bias=False
            (norm): SyncBatchNorm(1024, eps=1e-05, momentum=0.1, affine=True, track_running_stats=True)
          )
        )
        (16): CoTXBlock(
          (conv1): Conv2d(
            1024, 384, kernel_size=(1, 1), stride=(1, 1), bias=False
            (norm): SyncBatchNorm(384, eps=1e-05, momentum=0.1, affine=True, track_running_stats=True)
          )
          (conv2): CoTXLayer(
            (key_embed): Sequential(
              (0): Conv2d(
                384, 384, kernel_size=(3, 3), stride=(1, 1), padding=(1, 1), groups=8, bias=False
                (norm): SyncBatchNorm(384, eps=1e-05, momentum=0.1, affine=True, track_running_stats=True)
              )
              (1): ReLU(inplace=True)
            )
            (embed): Sequential(
              (0): Conv2d(
                768, 192, kernel_size=(1, 1), stride=(1, 1), groups=2, bias=False
                (norm): SyncBatchNorm(192, eps=1e-05, momentum=0.1, affine=True, track_running_stats=True)
              )
              (1): ReLU(inplace=True)
              (2): Conv2d(192, 432, kernel_size=(1, 1), stride=(1, 1), groups=2)
              (3): GroupNorm(48, 432, eps=1e-05, affine=True)
            )
            (conv1x1): Sequential(
              (0): Conv2d(384, 384, kernel_size=(1, 1), stride=(1, 1), groups=2, bias=False)
              (1): SyncBatchNorm(384, eps=1e-05, momentum=0.1, affine=True, track_running_stats=True)
            )
            (local_conv): LocalConvolution()
            (bn): SyncBatchNorm(384, eps=1e-05, momentum=0.1, affine=True, track_running_stats=True)
            (act): SiLU(inplace=True)
            (se): Sequential(
              (0): Conv2d(
                384, 192, kernel_size=(1, 1), stride=(1, 1)
                (norm): SyncBatchNorm(192, eps=1e-05, momentum=0.1, affine=True, track_running_stats=True)
              )
              (1): ReLU(inplace=True)
              (2): Conv2d(192, 768, kernel_size=(1, 1), stride=(1, 1))
            )
          )
          (conv3): Conv2d(
            384, 1024, kernel_size=(1, 1), stride=(1, 1), bias=False
            (norm): SyncBatchNorm(1024, eps=1e-05, momentum=0.1, affine=True, track_running_stats=True)
          )
        )
        (17): CoTXBlock(
          (conv1): Conv2d(
            1024, 384, kernel_size=(1, 1), stride=(1, 1), bias=False
            (norm): SyncBatchNorm(384, eps=1e-05, momentum=0.1, affine=True, track_running_stats=True)
          )
          (conv2): CoTXLayer(
            (key_embed): Sequential(
              (0): Conv2d(
                384, 384, kernel_size=(3, 3), stride=(1, 1), padding=(1, 1), groups=8, bias=False
                (norm): SyncBatchNorm(384, eps=1e-05, momentum=0.1, affine=True, track_running_stats=True)
              )
              (1): ReLU(inplace=True)
            )
            (embed): Sequential(
              (0): Conv2d(
                768, 192, kernel_size=(1, 1), stride=(1, 1), groups=2, bias=False
                (norm): SyncBatchNorm(192, eps=1e-05, momentum=0.1, affine=True, track_running_stats=True)
              )
              (1): ReLU(inplace=True)
              (2): Conv2d(192, 432, kernel_size=(1, 1), stride=(1, 1), groups=2)
              (3): GroupNorm(48, 432, eps=1e-05, affine=True)
            )
            (conv1x1): Sequential(
              (0): Conv2d(384, 384, kernel_size=(1, 1), stride=(1, 1), groups=2, bias=False)
              (1): SyncBatchNorm(384, eps=1e-05, momentum=0.1, affine=True, track_running_stats=True)
            )
            (local_conv): LocalConvolution()
            (bn): SyncBatchNorm(384, eps=1e-05, momentum=0.1, affine=True, track_running_stats=True)
            (act): SiLU(inplace=True)
            (se): Sequential(
              (0): Conv2d(
                384, 192, kernel_size=(1, 1), stride=(1, 1)
                (norm): SyncBatchNorm(192, eps=1e-05, momentum=0.1, affine=True, track_running_stats=True)
              )
              (1): ReLU(inplace=True)
              (2): Conv2d(192, 768, kernel_size=(1, 1), stride=(1, 1))
            )
          )
          (conv3): Conv2d(
            384, 1024, kernel_size=(1, 1), stride=(1, 1), bias=False
            (norm): SyncBatchNorm(1024, eps=1e-05, momentum=0.1, affine=True, track_running_stats=True)
          )
        )
        (18): CoTXBlock(
          (conv1): Conv2d(
            1024, 384, kernel_size=(1, 1), stride=(1, 1), bias=False
            (norm): SyncBatchNorm(384, eps=1e-05, momentum=0.1, affine=True, track_running_stats=True)
          )
          (conv2): CoTXLayer(
            (key_embed): Sequential(
              (0): Conv2d(
                384, 384, kernel_size=(3, 3), stride=(1, 1), padding=(1, 1), groups=8, bias=False
                (norm): SyncBatchNorm(384, eps=1e-05, momentum=0.1, affine=True, track_running_stats=True)
              )
              (1): ReLU(inplace=True)
            )
            (embed): Sequential(
              (0): Conv2d(
                768, 192, kernel_size=(1, 1), stride=(1, 1), groups=2, bias=False
                (norm): SyncBatchNorm(192, eps=1e-05, momentum=0.1, affine=True, track_running_stats=True)
              )
              (1): ReLU(inplace=True)
              (2): Conv2d(192, 432, kernel_size=(1, 1), stride=(1, 1), groups=2)
              (3): GroupNorm(48, 432, eps=1e-05, affine=True)
            )
            (conv1x1): Sequential(
              (0): Conv2d(384, 384, kernel_size=(1, 1), stride=(1, 1), groups=2, bias=False)
              (1): SyncBatchNorm(384, eps=1e-05, momentum=0.1, affine=True, track_running_stats=True)
            )
            (local_conv): LocalConvolution()
            (bn): SyncBatchNorm(384, eps=1e-05, momentum=0.1, affine=True, track_running_stats=True)
            (act): SiLU(inplace=True)
            (se): Sequential(
              (0): Conv2d(
                384, 192, kernel_size=(1, 1), stride=(1, 1)
                (norm): SyncBatchNorm(192, eps=1e-05, momentum=0.1, affine=True, track_running_stats=True)
              )
              (1): ReLU(inplace=True)
              (2): Conv2d(192, 768, kernel_size=(1, 1), stride=(1, 1))
            )
          )
          (conv3): Conv2d(
            384, 1024, kernel_size=(1, 1), stride=(1, 1), bias=False
            (norm): SyncBatchNorm(1024, eps=1e-05, momentum=0.1, affine=True, track_running_stats=True)
          )
        )
        (19): CoTXBlock(
          (conv1): Conv2d(
            1024, 384, kernel_size=(1, 1), stride=(1, 1), bias=False
            (norm): SyncBatchNorm(384, eps=1e-05, momentum=0.1, affine=True, track_running_stats=True)
          )
          (conv2): CoTXLayer(
            (key_embed): Sequential(
              (0): Conv2d(
                384, 384, kernel_size=(3, 3), stride=(1, 1), padding=(1, 1), groups=8, bias=False
                (norm): SyncBatchNorm(384, eps=1e-05, momentum=0.1, affine=True, track_running_stats=True)
              )
              (1): ReLU(inplace=True)
            )
            (embed): Sequential(
              (0): Conv2d(
                768, 192, kernel_size=(1, 1), stride=(1, 1), groups=2, bias=False
                (norm): SyncBatchNorm(192, eps=1e-05, momentum=0.1, affine=True, track_running_stats=True)
              )
              (1): ReLU(inplace=True)
              (2): Conv2d(192, 432, kernel_size=(1, 1), stride=(1, 1), groups=2)
              (3): GroupNorm(48, 432, eps=1e-05, affine=True)
            )
            (conv1x1): Sequential(
              (0): Conv2d(384, 384, kernel_size=(1, 1), stride=(1, 1), groups=2, bias=False)
              (1): SyncBatchNorm(384, eps=1e-05, momentum=0.1, affine=True, track_running_stats=True)
            )
            (local_conv): LocalConvolution()
            (bn): SyncBatchNorm(384, eps=1e-05, momentum=0.1, affine=True, track_running_stats=True)
            (act): SiLU(inplace=True)
            (se): Sequential(
              (0): Conv2d(
                384, 192, kernel_size=(1, 1), stride=(1, 1)
                (norm): SyncBatchNorm(192, eps=1e-05, momentum=0.1, affine=True, track_running_stats=True)
              )
              (1): ReLU(inplace=True)
              (2): Conv2d(192, 768, kernel_size=(1, 1), stride=(1, 1))
            )
          )
          (conv3): Conv2d(
            384, 1024, kernel_size=(1, 1), stride=(1, 1), bias=False
            (norm): SyncBatchNorm(1024, eps=1e-05, momentum=0.1, affine=True, track_running_stats=True)
          )
        )
        (20): CoTXBlock(
          (conv1): Conv2d(
            1024, 384, kernel_size=(1, 1), stride=(1, 1), bias=False
            (norm): SyncBatchNorm(384, eps=1e-05, momentum=0.1, affine=True, track_running_stats=True)
          )
          (conv2): CoTXLayer(
            (key_embed): Sequential(
              (0): Conv2d(
                384, 384, kernel_size=(3, 3), stride=(1, 1), padding=(1, 1), groups=8, bias=False
                (norm): SyncBatchNorm(384, eps=1e-05, momentum=0.1, affine=True, track_running_stats=True)
              )
              (1): ReLU(inplace=True)
            )
            (embed): Sequential(
              (0): Conv2d(
                768, 192, kernel_size=(1, 1), stride=(1, 1), groups=2, bias=False
                (norm): SyncBatchNorm(192, eps=1e-05, momentum=0.1, affine=True, track_running_stats=True)
              )
              (1): ReLU(inplace=True)
              (2): Conv2d(192, 432, kernel_size=(1, 1), stride=(1, 1), groups=2)
              (3): GroupNorm(48, 432, eps=1e-05, affine=True)
            )
            (conv1x1): Sequential(
              (0): Conv2d(384, 384, kernel_size=(1, 1), stride=(1, 1), groups=2, bias=False)
              (1): SyncBatchNorm(384, eps=1e-05, momentum=0.1, affine=True, track_running_stats=True)
            )
            (local_conv): LocalConvolution()
            (bn): SyncBatchNorm(384, eps=1e-05, momentum=0.1, affine=True, track_running_stats=True)
            (act): SiLU(inplace=True)
            (se): Sequential(
              (0): Conv2d(
                384, 192, kernel_size=(1, 1), stride=(1, 1)
                (norm): SyncBatchNorm(192, eps=1e-05, momentum=0.1, affine=True, track_running_stats=True)
              )
              (1): ReLU(inplace=True)
              (2): Conv2d(192, 768, kernel_size=(1, 1), stride=(1, 1))
            )
          )
          (conv3): Conv2d(
            384, 1024, kernel_size=(1, 1), stride=(1, 1), bias=False
            (norm): SyncBatchNorm(1024, eps=1e-05, momentum=0.1, affine=True, track_running_stats=True)
          )
        )
        (21): CoTXBlock(
          (conv1): Conv2d(
            1024, 384, kernel_size=(1, 1), stride=(1, 1), bias=False
            (norm): SyncBatchNorm(384, eps=1e-05, momentum=0.1, affine=True, track_running_stats=True)
          )
          (conv2): CoTXLayer(
            (key_embed): Sequential(
              (0): Conv2d(
                384, 384, kernel_size=(3, 3), stride=(1, 1), padding=(1, 1), groups=8, bias=False
                (norm): SyncBatchNorm(384, eps=1e-05, momentum=0.1, affine=True, track_running_stats=True)
              )
              (1): ReLU(inplace=True)
            )
            (embed): Sequential(
              (0): Conv2d(
                768, 192, kernel_size=(1, 1), stride=(1, 1), groups=2, bias=False
                (norm): SyncBatchNorm(192, eps=1e-05, momentum=0.1, affine=True, track_running_stats=True)
              )
              (1): ReLU(inplace=True)
              (2): Conv2d(192, 432, kernel_size=(1, 1), stride=(1, 1), groups=2)
              (3): GroupNorm(48, 432, eps=1e-05, affine=True)
            )
            (conv1x1): Sequential(
              (0): Conv2d(384, 384, kernel_size=(1, 1), stride=(1, 1), groups=2, bias=False)
              (1): SyncBatchNorm(384, eps=1e-05, momentum=0.1, affine=True, track_running_stats=True)
            )
            (local_conv): LocalConvolution()
            (bn): SyncBatchNorm(384, eps=1e-05, momentum=0.1, affine=True, track_running_stats=True)
            (act): SiLU(inplace=True)
            (se): Sequential(
              (0): Conv2d(
                384, 192, kernel_size=(1, 1), stride=(1, 1)
                (norm): SyncBatchNorm(192, eps=1e-05, momentum=0.1, affine=True, track_running_stats=True)
              )
              (1): ReLU(inplace=True)
              (2): Conv2d(192, 768, kernel_size=(1, 1), stride=(1, 1))
            )
          )
          (conv3): Conv2d(
            384, 1024, kernel_size=(1, 1), stride=(1, 1), bias=False
            (norm): SyncBatchNorm(1024, eps=1e-05, momentum=0.1, affine=True, track_running_stats=True)
          )
        )
        (22): CoTXBlock(
          (conv1): Conv2d(
            1024, 384, kernel_size=(1, 1), stride=(1, 1), bias=False
            (norm): SyncBatchNorm(384, eps=1e-05, momentum=0.1, affine=True, track_running_stats=True)
          )
          (conv2): CoTXLayer(
            (key_embed): Sequential(
              (0): Conv2d(
                384, 384, kernel_size=(3, 3), stride=(1, 1), padding=(1, 1), groups=8, bias=False
                (norm): SyncBatchNorm(384, eps=1e-05, momentum=0.1, affine=True, track_running_stats=True)
              )
              (1): ReLU(inplace=True)
            )
            (embed): Sequential(
              (0): Conv2d(
                768, 192, kernel_size=(1, 1), stride=(1, 1), groups=2, bias=False
                (norm): SyncBatchNorm(192, eps=1e-05, momentum=0.1, affine=True, track_running_stats=True)
              )
              (1): ReLU(inplace=True)
              (2): Conv2d(192, 432, kernel_size=(1, 1), stride=(1, 1), groups=2)
              (3): GroupNorm(48, 432, eps=1e-05, affine=True)
            )
            (conv1x1): Sequential(
              (0): Conv2d(384, 384, kernel_size=(1, 1), stride=(1, 1), groups=2, bias=False)
              (1): SyncBatchNorm(384, eps=1e-05, momentum=0.1, affine=True, track_running_stats=True)
            )
            (local_conv): LocalConvolution()
            (bn): SyncBatchNorm(384, eps=1e-05, momentum=0.1, affine=True, track_running_stats=True)
            (act): SiLU(inplace=True)
            (se): Sequential(
              (0): Conv2d(
                384, 192, kernel_size=(1, 1), stride=(1, 1)
                (norm): SyncBatchNorm(192, eps=1e-05, momentum=0.1, affine=True, track_running_stats=True)
              )
              (1): ReLU(inplace=True)
              (2): Conv2d(192, 768, kernel_size=(1, 1), stride=(1, 1))
            )
          )
          (conv3): Conv2d(
            384, 1024, kernel_size=(1, 1), stride=(1, 1), bias=False
            (norm): SyncBatchNorm(1024, eps=1e-05, momentum=0.1, affine=True, track_running_stats=True)
          )
        )
      )
      (res5): Sequential(
        (0): CoTXBlock(
          (shortcut): Conv2d(
            1024, 2048, kernel_size=(1, 1), stride=(2, 2), bias=False
            (norm): SyncBatchNorm(2048, eps=1e-05, momentum=0.1, affine=True, track_running_stats=True)
          )
          (conv1): Conv2d(
            1024, 768, kernel_size=(1, 1), stride=(1, 1), bias=False
            (norm): SyncBatchNorm(768, eps=1e-05, momentum=0.1, affine=True, track_running_stats=True)
          )
          (avd): AvgPool2d(kernel_size=3, stride=2, padding=1)
          (conv2): CoTXLayer(
            (key_embed): Sequential(
              (0): Conv2d(
                768, 768, kernel_size=(3, 3), stride=(1, 1), padding=(1, 1), groups=8, bias=False
                (norm): SyncBatchNorm(768, eps=1e-05, momentum=0.1, affine=True, track_running_stats=True)
              )
              (1): ReLU(inplace=True)
            )
            (embed): Sequential(
              (0): Conv2d(
                1536, 384, kernel_size=(1, 1), stride=(1, 1), groups=2, bias=False
                (norm): SyncBatchNorm(384, eps=1e-05, momentum=0.1, affine=True, track_running_stats=True)
              )
              (1): ReLU(inplace=True)
              (2): Conv2d(384, 864, kernel_size=(1, 1), stride=(1, 1), groups=2)
              (3): GroupNorm(96, 864, eps=1e-05, affine=True)
            )
            (conv1x1): Sequential(
              (0): Conv2d(768, 768, kernel_size=(1, 1), stride=(1, 1), groups=2, bias=False)
              (1): SyncBatchNorm(768, eps=1e-05, momentum=0.1, affine=True, track_running_stats=True)
            )
            (local_conv): LocalConvolution()
            (bn): SyncBatchNorm(768, eps=1e-05, momentum=0.1, affine=True, track_running_stats=True)
            (act): SiLU(inplace=True)
            (se): Sequential(
              (0): Conv2d(
                768, 384, kernel_size=(1, 1), stride=(1, 1)
                (norm): SyncBatchNorm(384, eps=1e-05, momentum=0.1, affine=True, track_running_stats=True)
              )
              (1): ReLU(inplace=True)
              (2): Conv2d(384, 1536, kernel_size=(1, 1), stride=(1, 1))
            )
          )
          (conv3): Conv2d(
            768, 2048, kernel_size=(1, 1), stride=(1, 1), bias=False
            (norm): SyncBatchNorm(2048, eps=1e-05, momentum=0.1, affine=True, track_running_stats=True)
          )
        )
        (1): CoTXBlock(
          (conv1): Conv2d(
            2048, 768, kernel_size=(1, 1), stride=(1, 1), bias=False
            (norm): SyncBatchNorm(768, eps=1e-05, momentum=0.1, affine=True, track_running_stats=True)
          )
          (conv2): CoTXLayer(
            (key_embed): Sequential(
              (0): Conv2d(
                768, 768, kernel_size=(3, 3), stride=(1, 1), padding=(1, 1), groups=8, bias=False
                (norm): SyncBatchNorm(768, eps=1e-05, momentum=0.1, affine=True, track_running_stats=True)
              )
              (1): ReLU(inplace=True)
            )
            (embed): Sequential(
              (0): Conv2d(
                1536, 384, kernel_size=(1, 1), stride=(1, 1), groups=2, bias=False
                (norm): SyncBatchNorm(384, eps=1e-05, momentum=0.1, affine=True, track_running_stats=True)
              )
              (1): ReLU(inplace=True)
              (2): Conv2d(384, 864, kernel_size=(1, 1), stride=(1, 1), groups=2)
              (3): GroupNorm(96, 864, eps=1e-05, affine=True)
            )
            (conv1x1): Sequential(
              (0): Conv2d(768, 768, kernel_size=(1, 1), stride=(1, 1), groups=2, bias=False)
              (1): SyncBatchNorm(768, eps=1e-05, momentum=0.1, affine=True, track_running_stats=True)
            )
            (local_conv): LocalConvolution()
            (bn): SyncBatchNorm(768, eps=1e-05, momentum=0.1, affine=True, track_running_stats=True)
            (act): SiLU(inplace=True)
            (se): Sequential(
              (0): Conv2d(
                768, 384, kernel_size=(1, 1), stride=(1, 1)
                (norm): SyncBatchNorm(384, eps=1e-05, momentum=0.1, affine=True, track_running_stats=True)
              )
              (1): ReLU(inplace=True)
              (2): Conv2d(384, 1536, kernel_size=(1, 1), stride=(1, 1))
            )
          )
          (conv3): Conv2d(
            768, 2048, kernel_size=(1, 1), stride=(1, 1), bias=False
            (norm): SyncBatchNorm(2048, eps=1e-05, momentum=0.1, affine=True, track_running_stats=True)
          )
        )
        (2): CoTXBlock(
          (conv1): Conv2d(
            2048, 768, kernel_size=(1, 1), stride=(1, 1), bias=False
            (norm): SyncBatchNorm(768, eps=1e-05, momentum=0.1, affine=True, track_running_stats=True)
          )
          (conv2): CoTXLayer(
            (key_embed): Sequential(
              (0): Conv2d(
                768, 768, kernel_size=(3, 3), stride=(1, 1), padding=(1, 1), groups=8, bias=False
                (norm): SyncBatchNorm(768, eps=1e-05, momentum=0.1, affine=True, track_running_stats=True)
              )
              (1): ReLU(inplace=True)
            )
            (embed): Sequential(
              (0): Conv2d(
                1536, 384, kernel_size=(1, 1), stride=(1, 1), groups=2, bias=False
                (norm): SyncBatchNorm(384, eps=1e-05, momentum=0.1, affine=True, track_running_stats=True)
              )
              (1): ReLU(inplace=True)
              (2): Conv2d(384, 864, kernel_size=(1, 1), stride=(1, 1), groups=2)
              (3): GroupNorm(96, 864, eps=1e-05, affine=True)
            )
            (conv1x1): Sequential(
              (0): Conv2d(768, 768, kernel_size=(1, 1), stride=(1, 1), groups=2, bias=False)
              (1): SyncBatchNorm(768, eps=1e-05, momentum=0.1, affine=True, track_running_stats=True)
            )
            (local_conv): LocalConvolution()
            (bn): SyncBatchNorm(768, eps=1e-05, momentum=0.1, affine=True, track_running_stats=True)
            (act): SiLU(inplace=True)
            (se): Sequential(
              (0): Conv2d(
                768, 384, kernel_size=(1, 1), stride=(1, 1)
                (norm): SyncBatchNorm(384, eps=1e-05, momentum=0.1, affine=True, track_running_stats=True)
              )
              (1): ReLU(inplace=True)
              (2): Conv2d(384, 1536, kernel_size=(1, 1), stride=(1, 1))
            )
          )
          (conv3): Conv2d(
            768, 2048, kernel_size=(1, 1), stride=(1, 1), bias=False
            (norm): SyncBatchNorm(2048, eps=1e-05, momentum=0.1, affine=True, track_running_stats=True)
          )
        )
      )
    )
  )
  (proposal_generator): RPN(
    (rpn_head): StandardRPNHead(
      (conv): Conv2d(256, 256, kernel_size=(3, 3), stride=(1, 1), padding=(1, 1))
      (objectness_logits): Conv2d(256, 3, kernel_size=(1, 1), stride=(1, 1))
      (anchor_deltas): Conv2d(256, 12, kernel_size=(1, 1), stride=(1, 1))
    )
    (anchor_generator): DefaultAnchorGenerator(
      (cell_anchors): BufferList()
    )
  )
  (roi_heads): CascadeROIHeads(
    (box_pooler): ROIPooler(
      (level_poolers): ModuleList(
        (0): ROIAlign(output_size=(7, 7), spatial_scale=0.25, sampling_ratio=0, aligned=True)
        (1): ROIAlign(output_size=(7, 7), spatial_scale=0.125, sampling_ratio=0, aligned=True)
        (2): ROIAlign(output_size=(7, 7), spatial_scale=0.0625, sampling_ratio=0, aligned=True)
        (3): ROIAlign(output_size=(7, 7), spatial_scale=0.03125, sampling_ratio=0, aligned=True)
      )
    )
    (box_head): ModuleList(
      (0): FastRCNNConvFCHead(
        (conv1): Conv2d(
          256, 256, kernel_size=(3, 3), stride=(1, 1), padding=(1, 1), bias=False
          (norm): SyncBatchNorm(256, eps=1e-05, momentum=0.1, affine=True, track_running_stats=True)
          (activation): ReLU()
        )
        (conv2): Conv2d(
          256, 256, kernel_size=(3, 3), stride=(1, 1), padding=(1, 1), bias=False
          (norm): SyncBatchNorm(256, eps=1e-05, momentum=0.1, affine=True, track_running_stats=True)
          (activation): ReLU()
        )
        (conv3): Conv2d(
          256, 256, kernel_size=(3, 3), stride=(1, 1), padding=(1, 1), bias=False
          (norm): SyncBatchNorm(256, eps=1e-05, momentum=0.1, affine=True, track_running_stats=True)
          (activation): ReLU()
        )
        (conv4): Conv2d(
          256, 256, kernel_size=(3, 3), stride=(1, 1), padding=(1, 1), bias=False
          (norm): SyncBatchNorm(256, eps=1e-05, momentum=0.1, affine=True, track_running_stats=True)
          (activation): ReLU()
        )
        (flatten): Flatten(start_dim=1, end_dim=-1)
        (fc1): Linear(in_features=12544, out_features=1024, bias=True)
        (fc_relu1): ReLU()
      )
      (1): FastRCNNConvFCHead(
        (conv1): Conv2d(
          256, 256, kernel_size=(3, 3), stride=(1, 1), padding=(1, 1), bias=False
          (norm): SyncBatchNorm(256, eps=1e-05, momentum=0.1, affine=True, track_running_stats=True)
          (activation): ReLU()
        )
        (conv2): Conv2d(
          256, 256, kernel_size=(3, 3), stride=(1, 1), padding=(1, 1), bias=False
          (norm): SyncBatchNorm(256, eps=1e-05, momentum=0.1, affine=True, track_running_stats=True)
          (activation): ReLU()
        )
        (conv3): Conv2d(
          256, 256, kernel_size=(3, 3), stride=(1, 1), padding=(1, 1), bias=False
          (norm): SyncBatchNorm(256, eps=1e-05, momentum=0.1, affine=True, track_running_stats=True)
          (activation): ReLU()
        )
        (conv4): Conv2d(
          256, 256, kernel_size=(3, 3), stride=(1, 1), padding=(1, 1), bias=False
          (norm): SyncBatchNorm(256, eps=1e-05, momentum=0.1, affine=True, track_running_stats=True)
          (activation): ReLU()
        )
        (flatten): Flatten(start_dim=1, end_dim=-1)
        (fc1): Linear(in_features=12544, out_features=1024, bias=True)
        (fc_relu1): ReLU()
      )
      (2): FastRCNNConvFCHead(
        (conv1): Conv2d(
          256, 256, kernel_size=(3, 3), stride=(1, 1), padding=(1, 1), bias=False
          (norm): SyncBatchNorm(256, eps=1e-05, momentum=0.1, affine=True, track_running_stats=True)
          (activation): ReLU()
        )
        (conv2): Conv2d(
          256, 256, kernel_size=(3, 3), stride=(1, 1), padding=(1, 1), bias=False
          (norm): SyncBatchNorm(256, eps=1e-05, momentum=0.1, affine=True, track_running_stats=True)
          (activation): ReLU()
        )
        (conv3): Conv2d(
          256, 256, kernel_size=(3, 3), stride=(1, 1), padding=(1, 1), bias=False
          (norm): SyncBatchNorm(256, eps=1e-05, momentum=0.1, affine=True, track_running_stats=True)
          (activation): ReLU()
        )
        (conv4): Conv2d(
          256, 256, kernel_size=(3, 3), stride=(1, 1), padding=(1, 1), bias=False
          (norm): SyncBatchNorm(256, eps=1e-05, momentum=0.1, affine=True, track_running_stats=True)
          (activation): ReLU()
        )
        (flatten): Flatten(start_dim=1, end_dim=-1)
        (fc1): Linear(in_features=12544, out_features=1024, bias=True)
        (fc_relu1): ReLU()
      )
    )
    (box_predictor): ModuleList(
      (0): FastRCNNOutputLayers(
        (cls_score): Linear(in_features=1024, out_features=81, bias=True)
        (bbox_pred): Linear(in_features=1024, out_features=4, bias=True)
      )
      (1): FastRCNNOutputLayers(
        (cls_score): Linear(in_features=1024, out_features=81, bias=True)
        (bbox_pred): Linear(in_features=1024, out_features=4, bias=True)
      )
      (2): FastRCNNOutputLayers(
        (cls_score): Linear(in_features=1024, out_features=81, bias=True)
        (bbox_pred): Linear(in_features=1024, out_features=4, bias=True)
      )
    )
  )
)
[06/10 06:39:13] d2.data.datasets.coco INFO: Loading datasets/coco/annotations/instances_train2017.json takes 18.99 seconds.
[06/10 06:39:14] d2.data.datasets.coco INFO: Loaded 118287 images in COCO format from datasets/coco/annotations/instances_train2017.json
[06/10 06:39:24] d2.data.build INFO: Removed 1021 images with no usable annotations. 117266 images left.
…
